{
  "nodes": [
    {
      "op": "_arange", 
      "name": "bertencoder0__arange0", 
      "attrs": {
        "dtype": "float32", 
        "infer_range": "True", 
        "repeat": "1", 
        "start": "0", 
        "step": "1", 
        "stop": "None"
      }, 
      "inputs": []
    }, 
    {
      "op": "null", 
      "name": "data0", 
      "inputs": []
    }, 
    {
      "op": "null", 
      "name": "bertmodel0_word_embed_embedding0_weight", 
      "attrs": {
        "__dtype__": "0", 
        "__lr_mult__": "1.0", 
        "__shape__": "(119547, 768)", 
        "__storage_type__": "0", 
        "__wd_mult__": "1.0"
      }, 
      "inputs": []
    }, 
    {
      "op": "Embedding", 
      "name": "bertmodel0_word_embed_embedding0_fwd", 
      "attrs": {
        "dtype": "float32", 
        "input_dim": "119547", 
        "output_dim": "768", 
        "sparse_grad": "False"
      }, 
      "inputs": [[1, 0, 0], [2, 0, 0]]
    }, 
    {
      "op": "Dropout", 
      "name": "bertmodel0_word_embed_dropout0_fwd", 
      "attrs": {
        "axes": "()", 
        "cudnn_off": "False", 
        "p": "0.1"
      }, 
      "inputs": [[3, 0, 0]]
    }, 
    {
      "op": "null", 
      "name": "data1", 
      "inputs": []
    }, 
    {
      "op": "null", 
      "name": "bertmodel0_token_type_embed_embedding0_weight", 
      "attrs": {
        "__dtype__": "0", 
        "__lr_mult__": "1.0", 
        "__shape__": "(2, 768)", 
        "__storage_type__": "0", 
        "__wd_mult__": "1.0"
      }, 
      "inputs": []
    }, 
    {
      "op": "Embedding", 
      "name": "bertmodel0_token_type_embed_embedding0_fwd", 
      "attrs": {
        "dtype": "float32", 
        "input_dim": "2", 
        "output_dim": "768", 
        "sparse_grad": "False"
      }, 
      "inputs": [[5, 0, 0], [6, 0, 0]]
    }, 
    {
      "op": "Dropout", 
      "name": "bertmodel0_token_type_embed_dropout0_fwd", 
      "attrs": {
        "axes": "()", 
        "cudnn_off": "False", 
        "p": "0.1"
      }, 
      "inputs": [[7, 0, 0]]
    }, 
    {
      "op": "elemwise_add", 
      "name": "bertmodel0__plus0", 
      "inputs": [[4, 0, 0], [8, 0, 0]]
    }, 
    {
      "op": "slice", 
      "name": "bertencoder0_slice0", 
      "attrs": {
        "begin": "(0, 0, 0)", 
        "end": "(1, None, 1)"
      }, 
      "inputs": [[9, 0, 0]]
    }, 
    {
      "op": "Reshape", 
      "name": "bertencoder0_reshape0", 
      "attrs": {"shape": "-1"}, 
      "inputs": [[10, 0, 0]]
    }, 
    {
      "op": "zeros_like", 
      "name": "bertencoder0_zeros_like0", 
      "inputs": [[11, 0, 0]]
    }, 
    {
      "op": "elemwise_add", 
      "name": "bertencoder0_elemwise_add0", 
      "inputs": [[0, 0, 0], [12, 0, 0]]
    }, 
    {
      "op": "Reshape", 
      "name": "bertencoder0_reshape1", 
      "attrs": {"shape": "(1, -1)"}, 
      "inputs": [[13, 0, 0]]
    }, 
    {
      "op": "null", 
      "name": "data2", 
      "inputs": []
    }, 
    {
      "op": "Reshape", 
      "name": "bertencoder0_reshape2", 
      "attrs": {"shape": "(-1, 1)"}, 
      "inputs": [[15, 0, 0]]
    }, 
    {
      "op": "broadcast_lesser", 
      "name": "bertencoder0_broadcast_lesser0", 
      "inputs": [[14, 0, 0], [16, 0, 0]]
    }, 
    {
      "op": "expand_dims", 
      "name": "bertencoder0_expand_dims0", 
      "attrs": {"axis": "1"}, 
      "inputs": [[17, 0, 0]]
    }, 
    {
      "op": "ones_like", 
      "name": "bertencoder0_ones_like0", 
      "inputs": [[13, 0, 0]]
    }, 
    {
      "op": "Reshape", 
      "name": "bertencoder0_reshape3", 
      "attrs": {"shape": "(-1, 1)"}, 
      "inputs": [[19, 0, 0]]
    }, 
    {
      "op": "broadcast_mul", 
      "name": "bertencoder0_broadcast_mul0", 
      "inputs": [[19, 0, 0], [20, 0, 0]]
    }, 
    {
      "op": "broadcast_mul", 
      "name": "bertencoder0_broadcast_mul1", 
      "inputs": [[18, 0, 0], [21, 0, 0]]
    }, 
    {
      "op": "expand_dims", 
      "name": "bertencoder0_transformer11_multiheadattentioncell0_expand_dims0", 
      "attrs": {"axis": "1"}, 
      "inputs": [[22, 0, 0]]
    }, 
    {
      "op": "broadcast_axis", 
      "name": "bertencoder0_transformer11_multiheadattentioncell0_broadcast_axis0", 
      "attrs": {
        "axis": "1", 
        "size": "12"
      }, 
      "inputs": [[23, 0, 0]]
    }, 
    {
      "op": "Reshape", 
      "name": "bertencoder0_transformer11_multiheadattentioncell0_reshape4", 
      "attrs": {
        "reverse": "True", 
        "shape": "(-1, 0, 0)"
      }, 
      "inputs": [[24, 0, 0]]
    }, 
    {
      "op": "expand_dims", 
      "name": "bertencoder0_transformer10_multiheadattentioncell0_expand_dims0", 
      "attrs": {"axis": "1"}, 
      "inputs": [[22, 0, 0]]
    }, 
    {
      "op": "broadcast_axis", 
      "name": "bertencoder0_transformer10_multiheadattentioncell0_broadcast_axis0", 
      "attrs": {
        "axis": "1", 
        "size": "12"
      }, 
      "inputs": [[26, 0, 0]]
    }, 
    {
      "op": "Reshape", 
      "name": "bertencoder0_transformer10_multiheadattentioncell0_reshape4", 
      "attrs": {
        "reverse": "True", 
        "shape": "(-1, 0, 0)"
      }, 
      "inputs": [[27, 0, 0]]
    }, 
    {
      "op": "expand_dims", 
      "name": "bertencoder0_transformer9_multiheadattentioncell0_expand_dims0", 
      "attrs": {"axis": "1"}, 
      "inputs": [[22, 0, 0]]
    }, 
    {
      "op": "broadcast_axis", 
      "name": "bertencoder0_transformer9_multiheadattentioncell0_broadcast_axis0", 
      "attrs": {
        "axis": "1", 
        "size": "12"
      }, 
      "inputs": [[29, 0, 0]]
    }, 
    {
      "op": "Reshape", 
      "name": "bertencoder0_transformer9_multiheadattentioncell0_reshape4", 
      "attrs": {
        "reverse": "True", 
        "shape": "(-1, 0, 0)"
      }, 
      "inputs": [[30, 0, 0]]
    }, 
    {
      "op": "expand_dims", 
      "name": "bertencoder0_transformer8_multiheadattentioncell0_expand_dims0", 
      "attrs": {"axis": "1"}, 
      "inputs": [[22, 0, 0]]
    }, 
    {
      "op": "broadcast_axis", 
      "name": "bertencoder0_transformer8_multiheadattentioncell0_broadcast_axis0", 
      "attrs": {
        "axis": "1", 
        "size": "12"
      }, 
      "inputs": [[32, 0, 0]]
    }, 
    {
      "op": "Reshape", 
      "name": "bertencoder0_transformer8_multiheadattentioncell0_reshape4", 
      "attrs": {
        "reverse": "True", 
        "shape": "(-1, 0, 0)"
      }, 
      "inputs": [[33, 0, 0]]
    }, 
    {
      "op": "expand_dims", 
      "name": "bertencoder0_transformer7_multiheadattentioncell0_expand_dims0", 
      "attrs": {"axis": "1"}, 
      "inputs": [[22, 0, 0]]
    }, 
    {
      "op": "broadcast_axis", 
      "name": "bertencoder0_transformer7_multiheadattentioncell0_broadcast_axis0", 
      "attrs": {
        "axis": "1", 
        "size": "12"
      }, 
      "inputs": [[35, 0, 0]]
    }, 
    {
      "op": "Reshape", 
      "name": "bertencoder0_transformer7_multiheadattentioncell0_reshape4", 
      "attrs": {
        "reverse": "True", 
        "shape": "(-1, 0, 0)"
      }, 
      "inputs": [[36, 0, 0]]
    }, 
    {
      "op": "expand_dims", 
      "name": "bertencoder0_transformer6_multiheadattentioncell0_expand_dims0", 
      "attrs": {"axis": "1"}, 
      "inputs": [[22, 0, 0]]
    }, 
    {
      "op": "broadcast_axis", 
      "name": "bertencoder0_transformer6_multiheadattentioncell0_broadcast_axis0", 
      "attrs": {
        "axis": "1", 
        "size": "12"
      }, 
      "inputs": [[38, 0, 0]]
    }, 
    {
      "op": "Reshape", 
      "name": "bertencoder0_transformer6_multiheadattentioncell0_reshape4", 
      "attrs": {
        "reverse": "True", 
        "shape": "(-1, 0, 0)"
      }, 
      "inputs": [[39, 0, 0]]
    }, 
    {
      "op": "expand_dims", 
      "name": "bertencoder0_transformer5_multiheadattentioncell0_expand_dims0", 
      "attrs": {"axis": "1"}, 
      "inputs": [[22, 0, 0]]
    }, 
    {
      "op": "broadcast_axis", 
      "name": "bertencoder0_transformer5_multiheadattentioncell0_broadcast_axis0", 
      "attrs": {
        "axis": "1", 
        "size": "12"
      }, 
      "inputs": [[41, 0, 0]]
    }, 
    {
      "op": "Reshape", 
      "name": "bertencoder0_transformer5_multiheadattentioncell0_reshape4", 
      "attrs": {
        "reverse": "True", 
        "shape": "(-1, 0, 0)"
      }, 
      "inputs": [[42, 0, 0]]
    }, 
    {
      "op": "expand_dims", 
      "name": "bertencoder0_transformer4_multiheadattentioncell0_expand_dims0", 
      "attrs": {"axis": "1"}, 
      "inputs": [[22, 0, 0]]
    }, 
    {
      "op": "broadcast_axis", 
      "name": "bertencoder0_transformer4_multiheadattentioncell0_broadcast_axis0", 
      "attrs": {
        "axis": "1", 
        "size": "12"
      }, 
      "inputs": [[44, 0, 0]]
    }, 
    {
      "op": "Reshape", 
      "name": "bertencoder0_transformer4_multiheadattentioncell0_reshape4", 
      "attrs": {
        "reverse": "True", 
        "shape": "(-1, 0, 0)"
      }, 
      "inputs": [[45, 0, 0]]
    }, 
    {
      "op": "expand_dims", 
      "name": "bertencoder0_transformer3_multiheadattentioncell0_expand_dims0", 
      "attrs": {"axis": "1"}, 
      "inputs": [[22, 0, 0]]
    }, 
    {
      "op": "broadcast_axis", 
      "name": "bertencoder0_transformer3_multiheadattentioncell0_broadcast_axis0", 
      "attrs": {
        "axis": "1", 
        "size": "12"
      }, 
      "inputs": [[47, 0, 0]]
    }, 
    {
      "op": "Reshape", 
      "name": "bertencoder0_transformer3_multiheadattentioncell0_reshape4", 
      "attrs": {
        "reverse": "True", 
        "shape": "(-1, 0, 0)"
      }, 
      "inputs": [[48, 0, 0]]
    }, 
    {
      "op": "expand_dims", 
      "name": "bertencoder0_transformer2_multiheadattentioncell0_expand_dims0", 
      "attrs": {"axis": "1"}, 
      "inputs": [[22, 0, 0]]
    }, 
    {
      "op": "broadcast_axis", 
      "name": "bertencoder0_transformer2_multiheadattentioncell0_broadcast_axis0", 
      "attrs": {
        "axis": "1", 
        "size": "12"
      }, 
      "inputs": [[50, 0, 0]]
    }, 
    {
      "op": "Reshape", 
      "name": "bertencoder0_transformer2_multiheadattentioncell0_reshape4", 
      "attrs": {
        "reverse": "True", 
        "shape": "(-1, 0, 0)"
      }, 
      "inputs": [[51, 0, 0]]
    }, 
    {
      "op": "expand_dims", 
      "name": "bertencoder0_transformer1_multiheadattentioncell0_expand_dims0", 
      "attrs": {"axis": "1"}, 
      "inputs": [[22, 0, 0]]
    }, 
    {
      "op": "broadcast_axis", 
      "name": "bertencoder0_transformer1_multiheadattentioncell0_broadcast_axis0", 
      "attrs": {
        "axis": "1", 
        "size": "12"
      }, 
      "inputs": [[53, 0, 0]]
    }, 
    {
      "op": "Reshape", 
      "name": "bertencoder0_transformer1_multiheadattentioncell0_reshape4", 
      "attrs": {
        "reverse": "True", 
        "shape": "(-1, 0, 0)"
      }, 
      "inputs": [[54, 0, 0]]
    }, 
    {
      "op": "expand_dims", 
      "name": "bertencoder0_transformer0_multiheadattentioncell0_expand_dims0", 
      "attrs": {"axis": "1"}, 
      "inputs": [[22, 0, 0]]
    }, 
    {
      "op": "broadcast_axis", 
      "name": "bertencoder0_transformer0_multiheadattentioncell0_broadcast_axis0", 
      "attrs": {
        "axis": "1", 
        "size": "12"
      }, 
      "inputs": [[56, 0, 0]]
    }, 
    {
      "op": "Reshape", 
      "name": "bertencoder0_transformer0_multiheadattentioncell0_reshape4", 
      "attrs": {
        "reverse": "True", 
        "shape": "(-1, 0, 0)"
      }, 
      "inputs": [[57, 0, 0]]
    }, 
    {
      "op": "null", 
      "name": "bertencoder0_position_weight", 
      "attrs": {
        "__dtype__": "0", 
        "__lr_mult__": "1.0", 
        "__shape__": "(512, 768)", 
        "__storage_type__": "0", 
        "__wd_mult__": "1.0"
      }, 
      "inputs": []
    }, 
    {
      "op": "Embedding", 
      "name": "bertencoder0_embedding0", 
      "attrs": {
        "input_dim": "512", 
        "output_dim": "768"
      }, 
      "inputs": [[13, 0, 0], [59, 0, 0]]
    }, 
    {
      "op": "expand_dims", 
      "name": "bertencoder0_expand_dims1", 
      "attrs": {"axis": "0"}, 
      "inputs": [[60, 0, 0]]
    }, 
    {
      "op": "broadcast_add", 
      "name": "bertencoder0_broadcast_add0", 
      "inputs": [[9, 0, 0], [61, 0, 0]]
    }, 
    {
      "op": "Dropout", 
      "name": "bertencoder0_dropout0_fwd", 
      "attrs": {
        "axes": "()", 
        "cudnn_off": "False", 
        "p": "0.1"
      }, 
      "inputs": [[62, 0, 0]]
    }, 
    {
      "op": "null", 
      "name": "bertencoder0_bertlayernorm0_gamma", 
      "attrs": {
        "__dtype__": "0", 
        "__init__": "ones", 
        "__lr_mult__": "1.0", 
        "__shape__": "(768,)", 
        "__storage_type__": "0", 
        "__wd_mult__": "1.0"
      }, 
      "inputs": []
    }, 
    {
      "op": "null", 
      "name": "bertencoder0_bertlayernorm0_beta", 
      "attrs": {
        "__dtype__": "0", 
        "__init__": "zeros", 
        "__lr_mult__": "1.0", 
        "__shape__": "(768,)", 
        "__storage_type__": "0", 
        "__wd_mult__": "1.0"
      }, 
      "inputs": []
    }, 
    {
      "op": "LayerNorm", 
      "name": "bertencoder0_bertlayernorm0_layernorm0", 
      "attrs": {
        "axis": "-1", 
        "eps": "1e-12"
      }, 
      "inputs": [[63, 0, 0], [64, 0, 0], [65, 0, 0]]
    }, 
    {
      "op": "null", 
      "name": "bertencoder0_transformer0_multiheadattentioncell0_query_weight", 
      "attrs": {
        "__dtype__": "0", 
        "__lr_mult__": "1.0", 
        "__shape__": "(768, 768)", 
        "__storage_type__": "0", 
        "__wd_mult__": "1.0"
      }, 
      "inputs": []
    }, 
    {
      "op": "null", 
      "name": "bertencoder0_transformer0_multiheadattentioncell0_query_bias", 
      "attrs": {
        "__dtype__": "0", 
        "__init__": "zeros", 
        "__lr_mult__": "1.0", 
        "__shape__": "(768,)", 
        "__storage_type__": "0", 
        "__wd_mult__": "1.0"
      }, 
      "inputs": []
    }, 
    {
      "op": "FullyConnected", 
      "name": "bertencoder0_transformer0_multiheadattentioncell0_query_fwd", 
      "attrs": {
        "flatten": "False", 
        "no_bias": "False", 
        "num_hidden": "768"
      }, 
      "inputs": [[66, 0, 0], [67, 0, 0], [68, 0, 0]]
    }, 
    {
      "op": "Reshape", 
      "name": "bertencoder0_transformer0_multiheadattentioncell0_reshape0", 
      "attrs": {"shape": "(0, 0, 12, -1)"}, 
      "inputs": [[69, 0, 0]]
    }, 
    {
      "op": "transpose", 
      "name": "bertencoder0_transformer0_multiheadattentioncell0_transpose0", 
      "attrs": {"axes": "(0, 2, 1, 3)"}, 
      "inputs": [[70, 0, 0]]
    }, 
    {
      "op": "Reshape", 
      "name": "bertencoder0_transformer0_multiheadattentioncell0_reshape1", 
      "attrs": {
        "reverse": "True", 
        "shape": "(-1, 0, 0)"
      }, 
      "inputs": [[71, 0, 0]]
    }, 
    {
      "op": "_contrib_div_sqrt_dim", 
      "name": "bertencoder0_transformer0_multiheadattentioncell0_div_sqrt_dim0", 
      "inputs": [[72, 0, 0]]
    }, 
    {
      "op": "null", 
      "name": "bertencoder0_transformer0_multiheadattentioncell0_key_weight", 
      "attrs": {
        "__dtype__": "0", 
        "__lr_mult__": "1.0", 
        "__shape__": "(768, 768)", 
        "__storage_type__": "0", 
        "__wd_mult__": "1.0"
      }, 
      "inputs": []
    }, 
    {
      "op": "null", 
      "name": "bertencoder0_transformer0_multiheadattentioncell0_key_bias", 
      "attrs": {
        "__dtype__": "0", 
        "__init__": "zeros", 
        "__lr_mult__": "1.0", 
        "__shape__": "(768,)", 
        "__storage_type__": "0", 
        "__wd_mult__": "1.0"
      }, 
      "inputs": []
    }, 
    {
      "op": "FullyConnected", 
      "name": "bertencoder0_transformer0_multiheadattentioncell0_key_fwd", 
      "attrs": {
        "flatten": "False", 
        "no_bias": "False", 
        "num_hidden": "768"
      }, 
      "inputs": [[66, 0, 0], [74, 0, 0], [75, 0, 0]]
    }, 
    {
      "op": "Reshape", 
      "name": "bertencoder0_transformer0_multiheadattentioncell0_reshape2", 
      "attrs": {"shape": "(0, 0, 12, -1)"}, 
      "inputs": [[76, 0, 0]]
    }, 
    {
      "op": "transpose", 
      "name": "bertencoder0_transformer0_multiheadattentioncell0_transpose1", 
      "attrs": {"axes": "(0, 2, 1, 3)"}, 
      "inputs": [[77, 0, 0]]
    }, 
    {
      "op": "Reshape", 
      "name": "bertencoder0_transformer0_multiheadattentioncell0_reshape3", 
      "attrs": {
        "reverse": "True", 
        "shape": "(-1, 0, 0)"
      }, 
      "inputs": [[78, 0, 0]]
    }, 
    {
      "op": "batch_dot", 
      "name": "bertencoder0_transformer0_multiheadattentioncell0_batch_dot0", 
      "attrs": {"transpose_b": "True"}, 
      "inputs": [[73, 0, 0], [79, 0, 0]]
    }, 
    {
      "op": "ones_like", 
      "name": "bertencoder0_transformer0_multiheadattentioncell0_ones_like0", 
      "inputs": [[80, 0, 0]]
    }, 
    {
      "op": "_mul_scalar", 
      "name": "bertencoder0_transformer0_multiheadattentioncell0__mulscalar0", 
      "attrs": {"scalar": "-1e+18"}, 
      "inputs": [[81, 0, 0]]
    }, 
    {
      "op": "where", 
      "name": "bertencoder0_transformer0_multiheadattentioncell0_where0", 
      "inputs": [[58, 0, 0], [80, 0, 0], [82, 0, 0]]
    }, 
    {
      "op": "softmax", 
      "name": "bertencoder0_transformer0_multiheadattentioncell0_softmax0", 
      "attrs": {"axis": "-1"}, 
      "inputs": [[83, 0, 0]]
    }, 
    {
      "op": "elemwise_mul", 
      "name": "bertencoder0_transformer0_multiheadattentioncell0__mul0", 
      "inputs": [[84, 0, 0], [58, 0, 0]]
    }, 
    {
      "op": "Dropout", 
      "name": "bertencoder0_transformer0_dotproductattentioncell0_dropout0_fwd", 
      "attrs": {
        "axes": "()", 
        "cudnn_off": "False", 
        "p": "0.1"
      }, 
      "inputs": [[85, 0, 0]]
    }, 
    {
      "op": "Reshape", 
      "name": "bertencoder0_transformer0_multiheadattentioncell0_reshape5", 
      "attrs": {
        "reverse": "True", 
        "shape": "(-1, 12, 0, 0)"
      }, 
      "inputs": [[86, 0, 0]]
    }, 
    {
      "op": "Reshape", 
      "name": "bertencoder0_transformer0_multiheadattentioncell0_reshape6", 
      "attrs": {
        "reverse": "True", 
        "shape": "(-1, 0, 0)"
      }, 
      "inputs": [[87, 0, 0]]
    }, 
    {
      "op": "null", 
      "name": "bertencoder0_transformer0_multiheadattentioncell0_value_weight", 
      "attrs": {
        "__dtype__": "0", 
        "__lr_mult__": "1.0", 
        "__shape__": "(768, 768)", 
        "__storage_type__": "0", 
        "__wd_mult__": "1.0"
      }, 
      "inputs": []
    }, 
    {
      "op": "null", 
      "name": "bertencoder0_transformer0_multiheadattentioncell0_value_bias", 
      "attrs": {
        "__dtype__": "0", 
        "__init__": "zeros", 
        "__lr_mult__": "1.0", 
        "__shape__": "(768,)", 
        "__storage_type__": "0", 
        "__wd_mult__": "1.0"
      }, 
      "inputs": []
    }, 
    {
      "op": "FullyConnected", 
      "name": "bertencoder0_transformer0_multiheadattentioncell0_value_fwd", 
      "attrs": {
        "flatten": "False", 
        "no_bias": "False", 
        "num_hidden": "768"
      }, 
      "inputs": [[66, 0, 0], [89, 0, 0], [90, 0, 0]]
    }, 
    {
      "op": "Reshape", 
      "name": "bertencoder0_transformer0_multiheadattentioncell0_reshape7", 
      "attrs": {"shape": "(0, 0, 12, -1)"}, 
      "inputs": [[91, 0, 0]]
    }, 
    {
      "op": "transpose", 
      "name": "bertencoder0_transformer0_multiheadattentioncell0_transpose2", 
      "attrs": {"axes": "(0, 2, 1, 3)"}, 
      "inputs": [[92, 0, 0]]
    }, 
    {
      "op": "Reshape", 
      "name": "bertencoder0_transformer0_multiheadattentioncell0_reshape8", 
      "attrs": {
        "reverse": "True", 
        "shape": "(-1, 0, 0)"
      }, 
      "inputs": [[93, 0, 0]]
    }, 
    {
      "op": "batch_dot", 
      "name": "bertencoder0_transformer0_multiheadattentioncell0_batch_dot1", 
      "inputs": [[88, 0, 0], [94, 0, 0]]
    }, 
    {
      "op": "Reshape", 
      "name": "bertencoder0_transformer0_multiheadattentioncell0_reshape9", 
      "attrs": {
        "reverse": "True", 
        "shape": "(-1, 12, 0, 0)"
      }, 
      "inputs": [[95, 0, 0]]
    }, 
    {
      "op": "transpose", 
      "name": "bertencoder0_transformer0_multiheadattentioncell0_transpose3", 
      "attrs": {"axes": "(0, 2, 1, 3)"}, 
      "inputs": [[96, 0, 0]]
    }, 
    {
      "op": "Reshape", 
      "name": "bertencoder0_transformer0_multiheadattentioncell0_reshape10", 
      "attrs": {"shape": "(0, 0, -1)"}, 
      "inputs": [[97, 0, 0]]
    }, 
    {
      "op": "null", 
      "name": "bertencoder0_transformer0_proj_weight", 
      "attrs": {
        "__dtype__": "0", 
        "__lr_mult__": "1.0", 
        "__shape__": "(768, 768)", 
        "__storage_type__": "0", 
        "__wd_mult__": "1.0"
      }, 
      "inputs": []
    }, 
    {
      "op": "null", 
      "name": "bertencoder0_transformer0_proj_bias", 
      "attrs": {
        "__dtype__": "0", 
        "__init__": "zeros", 
        "__lr_mult__": "1.0", 
        "__shape__": "(768,)", 
        "__storage_type__": "0", 
        "__wd_mult__": "1.0"
      }, 
      "inputs": []
    }, 
    {
      "op": "FullyConnected", 
      "name": "bertencoder0_transformer0_proj_fwd", 
      "attrs": {
        "flatten": "False", 
        "no_bias": "False", 
        "num_hidden": "768"
      }, 
      "inputs": [[98, 0, 0], [99, 0, 0], [100, 0, 0]]
    }, 
    {
      "op": "Dropout", 
      "name": "bertencoder0_transformer0_dropout0_fwd", 
      "attrs": {
        "axes": "()", 
        "cudnn_off": "False", 
        "p": "0.1"
      }, 
      "inputs": [[101, 0, 0]]
    }, 
    {
      "op": "elemwise_add", 
      "name": "bertencoder0_transformer0__plus0", 
      "inputs": [[102, 0, 0], [66, 0, 0]]
    }, 
    {
      "op": "null", 
      "name": "bertencoder0_transformer0_bertlayernorm0_gamma", 
      "attrs": {
        "__dtype__": "0", 
        "__init__": "ones", 
        "__lr_mult__": "1.0", 
        "__shape__": "(768,)", 
        "__storage_type__": "0", 
        "__wd_mult__": "1.0"
      }, 
      "inputs": []
    }, 
    {
      "op": "null", 
      "name": "bertencoder0_transformer0_bertlayernorm0_beta", 
      "attrs": {
        "__dtype__": "0", 
        "__init__": "zeros", 
        "__lr_mult__": "1.0", 
        "__shape__": "(768,)", 
        "__storage_type__": "0", 
        "__wd_mult__": "1.0"
      }, 
      "inputs": []
    }, 
    {
      "op": "LayerNorm", 
      "name": "bertencoder0_transformer0_bertlayernorm0_layernorm0", 
      "attrs": {
        "axis": "-1", 
        "eps": "1e-12"
      }, 
      "inputs": [[103, 0, 0], [104, 0, 0], [105, 0, 0]]
    }, 
    {
      "op": "null", 
      "name": "bertencoder0_transformer0_bertpositionwiseffn0_ffn_1_weight", 
      "attrs": {
        "__dtype__": "0", 
        "__lr_mult__": "1.0", 
        "__shape__": "(3072, 768)", 
        "__storage_type__": "0", 
        "__wd_mult__": "1.0"
      }, 
      "inputs": []
    }, 
    {
      "op": "null", 
      "name": "bertencoder0_transformer0_bertpositionwiseffn0_ffn_1_bias", 
      "attrs": {
        "__dtype__": "0", 
        "__init__": "zeros", 
        "__lr_mult__": "1.0", 
        "__shape__": "(3072,)", 
        "__storage_type__": "0", 
        "__wd_mult__": "1.0"
      }, 
      "inputs": []
    }, 
    {
      "op": "FullyConnected", 
      "name": "bertencoder0_transformer0_bertpositionwiseffn0_ffn_1_fwd", 
      "attrs": {
        "flatten": "False", 
        "no_bias": "False", 
        "num_hidden": "3072"
      }, 
      "inputs": [[106, 0, 0], [107, 0, 0], [108, 0, 0]]
    }, 
    {
      "op": "_mul_scalar", 
      "name": "bertencoder0_transformer0_bertpositionwiseffn0_gelu0__mulscalar0", 
      "attrs": {"scalar": "0.5"}, 
      "inputs": [[109, 0, 0]]
    }, 
    {
      "op": "_div_scalar", 
      "name": "bertencoder0_transformer0_bertpositionwiseffn0_gelu0__divscalar0", 
      "attrs": {"scalar": "1.4142135623730951"}, 
      "inputs": [[109, 0, 0]]
    }, 
    {
      "op": "erf", 
      "name": "bertencoder0_transformer0_bertpositionwiseffn0_gelu0_erf0", 
      "inputs": [[111, 0, 0]]
    }, 
    {
      "op": "_plus_scalar", 
      "name": "bertencoder0_transformer0_bertpositionwiseffn0_gelu0__plusscalar0", 
      "attrs": {"scalar": "1.0"}, 
      "inputs": [[112, 0, 0]]
    }, 
    {
      "op": "elemwise_mul", 
      "name": "bertencoder0_transformer0_bertpositionwiseffn0_gelu0__mul0", 
      "inputs": [[110, 0, 0], [113, 0, 0]]
    }, 
    {
      "op": "null", 
      "name": "bertencoder0_transformer0_bertpositionwiseffn0_ffn_2_weight", 
      "attrs": {
        "__dtype__": "0", 
        "__lr_mult__": "1.0", 
        "__shape__": "(768, 3072)", 
        "__storage_type__": "0", 
        "__wd_mult__": "1.0"
      }, 
      "inputs": []
    }, 
    {
      "op": "null", 
      "name": "bertencoder0_transformer0_bertpositionwiseffn0_ffn_2_bias", 
      "attrs": {
        "__dtype__": "0", 
        "__init__": "zeros", 
        "__lr_mult__": "1.0", 
        "__shape__": "(768,)", 
        "__storage_type__": "0", 
        "__wd_mult__": "1.0"
      }, 
      "inputs": []
    }, 
    {
      "op": "FullyConnected", 
      "name": "bertencoder0_transformer0_bertpositionwiseffn0_ffn_2_fwd", 
      "attrs": {
        "flatten": "False", 
        "no_bias": "False", 
        "num_hidden": "768"
      }, 
      "inputs": [[114, 0, 0], [115, 0, 0], [116, 0, 0]]
    }, 
    {
      "op": "Dropout", 
      "name": "bertencoder0_transformer0_bertpositionwiseffn0_dropout0_fwd", 
      "attrs": {
        "axes": "()", 
        "cudnn_off": "False", 
        "p": "0.1"
      }, 
      "inputs": [[117, 0, 0]]
    }, 
    {
      "op": "elemwise_add", 
      "name": "bertencoder0_transformer0_bertpositionwiseffn0__plus0", 
      "inputs": [[118, 0, 0], [106, 0, 0]]
    }, 
    {
      "op": "null", 
      "name": "bertencoder0_transformer0_bertpositionwiseffn0_bertlayernorm0_gamma", 
      "attrs": {
        "__dtype__": "0", 
        "__init__": "ones", 
        "__lr_mult__": "1.0", 
        "__shape__": "(768,)", 
        "__storage_type__": "0", 
        "__wd_mult__": "1.0"
      }, 
      "inputs": []
    }, 
    {
      "op": "null", 
      "name": "bertencoder0_transformer0_bertpositionwiseffn0_bertlayernorm0_beta", 
      "attrs": {
        "__dtype__": "0", 
        "__init__": "zeros", 
        "__lr_mult__": "1.0", 
        "__shape__": "(768,)", 
        "__storage_type__": "0", 
        "__wd_mult__": "1.0"
      }, 
      "inputs": []
    }, 
    {
      "op": "LayerNorm", 
      "name": "bertencoder0_transformer0_bertpositionwiseffn0_bertlayernorm0_layernorm0", 
      "attrs": {
        "axis": "-1", 
        "eps": "1e-12"
      }, 
      "inputs": [[119, 0, 0], [120, 0, 0], [121, 0, 0]]
    }, 
    {
      "op": "null", 
      "name": "bertencoder0_transformer1_multiheadattentioncell0_query_weight", 
      "attrs": {
        "__dtype__": "0", 
        "__lr_mult__": "1.0", 
        "__shape__": "(768, 768)", 
        "__storage_type__": "0", 
        "__wd_mult__": "1.0"
      }, 
      "inputs": []
    }, 
    {
      "op": "null", 
      "name": "bertencoder0_transformer1_multiheadattentioncell0_query_bias", 
      "attrs": {
        "__dtype__": "0", 
        "__init__": "zeros", 
        "__lr_mult__": "1.0", 
        "__shape__": "(768,)", 
        "__storage_type__": "0", 
        "__wd_mult__": "1.0"
      }, 
      "inputs": []
    }, 
    {
      "op": "FullyConnected", 
      "name": "bertencoder0_transformer1_multiheadattentioncell0_query_fwd", 
      "attrs": {
        "flatten": "False", 
        "no_bias": "False", 
        "num_hidden": "768"
      }, 
      "inputs": [[122, 0, 0], [123, 0, 0], [124, 0, 0]]
    }, 
    {
      "op": "Reshape", 
      "name": "bertencoder0_transformer1_multiheadattentioncell0_reshape0", 
      "attrs": {"shape": "(0, 0, 12, -1)"}, 
      "inputs": [[125, 0, 0]]
    }, 
    {
      "op": "transpose", 
      "name": "bertencoder0_transformer1_multiheadattentioncell0_transpose0", 
      "attrs": {"axes": "(0, 2, 1, 3)"}, 
      "inputs": [[126, 0, 0]]
    }, 
    {
      "op": "Reshape", 
      "name": "bertencoder0_transformer1_multiheadattentioncell0_reshape1", 
      "attrs": {
        "reverse": "True", 
        "shape": "(-1, 0, 0)"
      }, 
      "inputs": [[127, 0, 0]]
    }, 
    {
      "op": "_contrib_div_sqrt_dim", 
      "name": "bertencoder0_transformer1_multiheadattentioncell0_div_sqrt_dim0", 
      "inputs": [[128, 0, 0]]
    }, 
    {
      "op": "null", 
      "name": "bertencoder0_transformer1_multiheadattentioncell0_key_weight", 
      "attrs": {
        "__dtype__": "0", 
        "__lr_mult__": "1.0", 
        "__shape__": "(768, 768)", 
        "__storage_type__": "0", 
        "__wd_mult__": "1.0"
      }, 
      "inputs": []
    }, 
    {
      "op": "null", 
      "name": "bertencoder0_transformer1_multiheadattentioncell0_key_bias", 
      "attrs": {
        "__dtype__": "0", 
        "__init__": "zeros", 
        "__lr_mult__": "1.0", 
        "__shape__": "(768,)", 
        "__storage_type__": "0", 
        "__wd_mult__": "1.0"
      }, 
      "inputs": []
    }, 
    {
      "op": "FullyConnected", 
      "name": "bertencoder0_transformer1_multiheadattentioncell0_key_fwd", 
      "attrs": {
        "flatten": "False", 
        "no_bias": "False", 
        "num_hidden": "768"
      }, 
      "inputs": [[122, 0, 0], [130, 0, 0], [131, 0, 0]]
    }, 
    {
      "op": "Reshape", 
      "name": "bertencoder0_transformer1_multiheadattentioncell0_reshape2", 
      "attrs": {"shape": "(0, 0, 12, -1)"}, 
      "inputs": [[132, 0, 0]]
    }, 
    {
      "op": "transpose", 
      "name": "bertencoder0_transformer1_multiheadattentioncell0_transpose1", 
      "attrs": {"axes": "(0, 2, 1, 3)"}, 
      "inputs": [[133, 0, 0]]
    }, 
    {
      "op": "Reshape", 
      "name": "bertencoder0_transformer1_multiheadattentioncell0_reshape3", 
      "attrs": {
        "reverse": "True", 
        "shape": "(-1, 0, 0)"
      }, 
      "inputs": [[134, 0, 0]]
    }, 
    {
      "op": "batch_dot", 
      "name": "bertencoder0_transformer1_multiheadattentioncell0_batch_dot0", 
      "attrs": {"transpose_b": "True"}, 
      "inputs": [[129, 0, 0], [135, 0, 0]]
    }, 
    {
      "op": "ones_like", 
      "name": "bertencoder0_transformer1_multiheadattentioncell0_ones_like0", 
      "inputs": [[136, 0, 0]]
    }, 
    {
      "op": "_mul_scalar", 
      "name": "bertencoder0_transformer1_multiheadattentioncell0__mulscalar0", 
      "attrs": {"scalar": "-1e+18"}, 
      "inputs": [[137, 0, 0]]
    }, 
    {
      "op": "where", 
      "name": "bertencoder0_transformer1_multiheadattentioncell0_where0", 
      "inputs": [[55, 0, 0], [136, 0, 0], [138, 0, 0]]
    }, 
    {
      "op": "softmax", 
      "name": "bertencoder0_transformer1_multiheadattentioncell0_softmax0", 
      "attrs": {"axis": "-1"}, 
      "inputs": [[139, 0, 0]]
    }, 
    {
      "op": "elemwise_mul", 
      "name": "bertencoder0_transformer1_multiheadattentioncell0__mul0", 
      "inputs": [[140, 0, 0], [55, 0, 0]]
    }, 
    {
      "op": "Dropout", 
      "name": "bertencoder0_transformer1_dotproductattentioncell0_dropout0_fwd", 
      "attrs": {
        "axes": "()", 
        "cudnn_off": "False", 
        "p": "0.1"
      }, 
      "inputs": [[141, 0, 0]]
    }, 
    {
      "op": "Reshape", 
      "name": "bertencoder0_transformer1_multiheadattentioncell0_reshape5", 
      "attrs": {
        "reverse": "True", 
        "shape": "(-1, 12, 0, 0)"
      }, 
      "inputs": [[142, 0, 0]]
    }, 
    {
      "op": "Reshape", 
      "name": "bertencoder0_transformer1_multiheadattentioncell0_reshape6", 
      "attrs": {
        "reverse": "True", 
        "shape": "(-1, 0, 0)"
      }, 
      "inputs": [[143, 0, 0]]
    }, 
    {
      "op": "null", 
      "name": "bertencoder0_transformer1_multiheadattentioncell0_value_weight", 
      "attrs": {
        "__dtype__": "0", 
        "__lr_mult__": "1.0", 
        "__shape__": "(768, 768)", 
        "__storage_type__": "0", 
        "__wd_mult__": "1.0"
      }, 
      "inputs": []
    }, 
    {
      "op": "null", 
      "name": "bertencoder0_transformer1_multiheadattentioncell0_value_bias", 
      "attrs": {
        "__dtype__": "0", 
        "__init__": "zeros", 
        "__lr_mult__": "1.0", 
        "__shape__": "(768,)", 
        "__storage_type__": "0", 
        "__wd_mult__": "1.0"
      }, 
      "inputs": []
    }, 
    {
      "op": "FullyConnected", 
      "name": "bertencoder0_transformer1_multiheadattentioncell0_value_fwd", 
      "attrs": {
        "flatten": "False", 
        "no_bias": "False", 
        "num_hidden": "768"
      }, 
      "inputs": [[122, 0, 0], [145, 0, 0], [146, 0, 0]]
    }, 
    {
      "op": "Reshape", 
      "name": "bertencoder0_transformer1_multiheadattentioncell0_reshape7", 
      "attrs": {"shape": "(0, 0, 12, -1)"}, 
      "inputs": [[147, 0, 0]]
    }, 
    {
      "op": "transpose", 
      "name": "bertencoder0_transformer1_multiheadattentioncell0_transpose2", 
      "attrs": {"axes": "(0, 2, 1, 3)"}, 
      "inputs": [[148, 0, 0]]
    }, 
    {
      "op": "Reshape", 
      "name": "bertencoder0_transformer1_multiheadattentioncell0_reshape8", 
      "attrs": {
        "reverse": "True", 
        "shape": "(-1, 0, 0)"
      }, 
      "inputs": [[149, 0, 0]]
    }, 
    {
      "op": "batch_dot", 
      "name": "bertencoder0_transformer1_multiheadattentioncell0_batch_dot1", 
      "inputs": [[144, 0, 0], [150, 0, 0]]
    }, 
    {
      "op": "Reshape", 
      "name": "bertencoder0_transformer1_multiheadattentioncell0_reshape9", 
      "attrs": {
        "reverse": "True", 
        "shape": "(-1, 12, 0, 0)"
      }, 
      "inputs": [[151, 0, 0]]
    }, 
    {
      "op": "transpose", 
      "name": "bertencoder0_transformer1_multiheadattentioncell0_transpose3", 
      "attrs": {"axes": "(0, 2, 1, 3)"}, 
      "inputs": [[152, 0, 0]]
    }, 
    {
      "op": "Reshape", 
      "name": "bertencoder0_transformer1_multiheadattentioncell0_reshape10", 
      "attrs": {"shape": "(0, 0, -1)"}, 
      "inputs": [[153, 0, 0]]
    }, 
    {
      "op": "null", 
      "name": "bertencoder0_transformer1_proj_weight", 
      "attrs": {
        "__dtype__": "0", 
        "__lr_mult__": "1.0", 
        "__shape__": "(768, 768)", 
        "__storage_type__": "0", 
        "__wd_mult__": "1.0"
      }, 
      "inputs": []
    }, 
    {
      "op": "null", 
      "name": "bertencoder0_transformer1_proj_bias", 
      "attrs": {
        "__dtype__": "0", 
        "__init__": "zeros", 
        "__lr_mult__": "1.0", 
        "__shape__": "(768,)", 
        "__storage_type__": "0", 
        "__wd_mult__": "1.0"
      }, 
      "inputs": []
    }, 
    {
      "op": "FullyConnected", 
      "name": "bertencoder0_transformer1_proj_fwd", 
      "attrs": {
        "flatten": "False", 
        "no_bias": "False", 
        "num_hidden": "768"
      }, 
      "inputs": [[154, 0, 0], [155, 0, 0], [156, 0, 0]]
    }, 
    {
      "op": "Dropout", 
      "name": "bertencoder0_transformer1_dropout0_fwd", 
      "attrs": {
        "axes": "()", 
        "cudnn_off": "False", 
        "p": "0.1"
      }, 
      "inputs": [[157, 0, 0]]
    }, 
    {
      "op": "elemwise_add", 
      "name": "bertencoder0_transformer1__plus0", 
      "inputs": [[158, 0, 0], [122, 0, 0]]
    }, 
    {
      "op": "null", 
      "name": "bertencoder0_transformer1_bertlayernorm0_gamma", 
      "attrs": {
        "__dtype__": "0", 
        "__init__": "ones", 
        "__lr_mult__": "1.0", 
        "__shape__": "(768,)", 
        "__storage_type__": "0", 
        "__wd_mult__": "1.0"
      }, 
      "inputs": []
    }, 
    {
      "op": "null", 
      "name": "bertencoder0_transformer1_bertlayernorm0_beta", 
      "attrs": {
        "__dtype__": "0", 
        "__init__": "zeros", 
        "__lr_mult__": "1.0", 
        "__shape__": "(768,)", 
        "__storage_type__": "0", 
        "__wd_mult__": "1.0"
      }, 
      "inputs": []
    }, 
    {
      "op": "LayerNorm", 
      "name": "bertencoder0_transformer1_bertlayernorm0_layernorm0", 
      "attrs": {
        "axis": "-1", 
        "eps": "1e-12"
      }, 
      "inputs": [[159, 0, 0], [160, 0, 0], [161, 0, 0]]
    }, 
    {
      "op": "null", 
      "name": "bertencoder0_transformer1_bertpositionwiseffn0_ffn_1_weight", 
      "attrs": {
        "__dtype__": "0", 
        "__lr_mult__": "1.0", 
        "__shape__": "(3072, 768)", 
        "__storage_type__": "0", 
        "__wd_mult__": "1.0"
      }, 
      "inputs": []
    }, 
    {
      "op": "null", 
      "name": "bertencoder0_transformer1_bertpositionwiseffn0_ffn_1_bias", 
      "attrs": {
        "__dtype__": "0", 
        "__init__": "zeros", 
        "__lr_mult__": "1.0", 
        "__shape__": "(3072,)", 
        "__storage_type__": "0", 
        "__wd_mult__": "1.0"
      }, 
      "inputs": []
    }, 
    {
      "op": "FullyConnected", 
      "name": "bertencoder0_transformer1_bertpositionwiseffn0_ffn_1_fwd", 
      "attrs": {
        "flatten": "False", 
        "no_bias": "False", 
        "num_hidden": "3072"
      }, 
      "inputs": [[162, 0, 0], [163, 0, 0], [164, 0, 0]]
    }, 
    {
      "op": "_mul_scalar", 
      "name": "bertencoder0_transformer1_bertpositionwiseffn0_gelu0__mulscalar0", 
      "attrs": {"scalar": "0.5"}, 
      "inputs": [[165, 0, 0]]
    }, 
    {
      "op": "_div_scalar", 
      "name": "bertencoder0_transformer1_bertpositionwiseffn0_gelu0__divscalar0", 
      "attrs": {"scalar": "1.4142135623730951"}, 
      "inputs": [[165, 0, 0]]
    }, 
    {
      "op": "erf", 
      "name": "bertencoder0_transformer1_bertpositionwiseffn0_gelu0_erf0", 
      "inputs": [[167, 0, 0]]
    }, 
    {
      "op": "_plus_scalar", 
      "name": "bertencoder0_transformer1_bertpositionwiseffn0_gelu0__plusscalar0", 
      "attrs": {"scalar": "1.0"}, 
      "inputs": [[168, 0, 0]]
    }, 
    {
      "op": "elemwise_mul", 
      "name": "bertencoder0_transformer1_bertpositionwiseffn0_gelu0__mul0", 
      "inputs": [[166, 0, 0], [169, 0, 0]]
    }, 
    {
      "op": "null", 
      "name": "bertencoder0_transformer1_bertpositionwiseffn0_ffn_2_weight", 
      "attrs": {
        "__dtype__": "0", 
        "__lr_mult__": "1.0", 
        "__shape__": "(768, 3072)", 
        "__storage_type__": "0", 
        "__wd_mult__": "1.0"
      }, 
      "inputs": []
    }, 
    {
      "op": "null", 
      "name": "bertencoder0_transformer1_bertpositionwiseffn0_ffn_2_bias", 
      "attrs": {
        "__dtype__": "0", 
        "__init__": "zeros", 
        "__lr_mult__": "1.0", 
        "__shape__": "(768,)", 
        "__storage_type__": "0", 
        "__wd_mult__": "1.0"
      }, 
      "inputs": []
    }, 
    {
      "op": "FullyConnected", 
      "name": "bertencoder0_transformer1_bertpositionwiseffn0_ffn_2_fwd", 
      "attrs": {
        "flatten": "False", 
        "no_bias": "False", 
        "num_hidden": "768"
      }, 
      "inputs": [[170, 0, 0], [171, 0, 0], [172, 0, 0]]
    }, 
    {
      "op": "Dropout", 
      "name": "bertencoder0_transformer1_bertpositionwiseffn0_dropout0_fwd", 
      "attrs": {
        "axes": "()", 
        "cudnn_off": "False", 
        "p": "0.1"
      }, 
      "inputs": [[173, 0, 0]]
    }, 
    {
      "op": "elemwise_add", 
      "name": "bertencoder0_transformer1_bertpositionwiseffn0__plus0", 
      "inputs": [[174, 0, 0], [162, 0, 0]]
    }, 
    {
      "op": "null", 
      "name": "bertencoder0_transformer1_bertpositionwiseffn0_bertlayernorm0_gamma", 
      "attrs": {
        "__dtype__": "0", 
        "__init__": "ones", 
        "__lr_mult__": "1.0", 
        "__shape__": "(768,)", 
        "__storage_type__": "0", 
        "__wd_mult__": "1.0"
      }, 
      "inputs": []
    }, 
    {
      "op": "null", 
      "name": "bertencoder0_transformer1_bertpositionwiseffn0_bertlayernorm0_beta", 
      "attrs": {
        "__dtype__": "0", 
        "__init__": "zeros", 
        "__lr_mult__": "1.0", 
        "__shape__": "(768,)", 
        "__storage_type__": "0", 
        "__wd_mult__": "1.0"
      }, 
      "inputs": []
    }, 
    {
      "op": "LayerNorm", 
      "name": "bertencoder0_transformer1_bertpositionwiseffn0_bertlayernorm0_layernorm0", 
      "attrs": {
        "axis": "-1", 
        "eps": "1e-12"
      }, 
      "inputs": [[175, 0, 0], [176, 0, 0], [177, 0, 0]]
    }, 
    {
      "op": "null", 
      "name": "bertencoder0_transformer2_multiheadattentioncell0_query_weight", 
      "attrs": {
        "__dtype__": "0", 
        "__lr_mult__": "1.0", 
        "__shape__": "(768, 768)", 
        "__storage_type__": "0", 
        "__wd_mult__": "1.0"
      }, 
      "inputs": []
    }, 
    {
      "op": "null", 
      "name": "bertencoder0_transformer2_multiheadattentioncell0_query_bias", 
      "attrs": {
        "__dtype__": "0", 
        "__init__": "zeros", 
        "__lr_mult__": "1.0", 
        "__shape__": "(768,)", 
        "__storage_type__": "0", 
        "__wd_mult__": "1.0"
      }, 
      "inputs": []
    }, 
    {
      "op": "FullyConnected", 
      "name": "bertencoder0_transformer2_multiheadattentioncell0_query_fwd", 
      "attrs": {
        "flatten": "False", 
        "no_bias": "False", 
        "num_hidden": "768"
      }, 
      "inputs": [[178, 0, 0], [179, 0, 0], [180, 0, 0]]
    }, 
    {
      "op": "Reshape", 
      "name": "bertencoder0_transformer2_multiheadattentioncell0_reshape0", 
      "attrs": {"shape": "(0, 0, 12, -1)"}, 
      "inputs": [[181, 0, 0]]
    }, 
    {
      "op": "transpose", 
      "name": "bertencoder0_transformer2_multiheadattentioncell0_transpose0", 
      "attrs": {"axes": "(0, 2, 1, 3)"}, 
      "inputs": [[182, 0, 0]]
    }, 
    {
      "op": "Reshape", 
      "name": "bertencoder0_transformer2_multiheadattentioncell0_reshape1", 
      "attrs": {
        "reverse": "True", 
        "shape": "(-1, 0, 0)"
      }, 
      "inputs": [[183, 0, 0]]
    }, 
    {
      "op": "_contrib_div_sqrt_dim", 
      "name": "bertencoder0_transformer2_multiheadattentioncell0_div_sqrt_dim0", 
      "inputs": [[184, 0, 0]]
    }, 
    {
      "op": "null", 
      "name": "bertencoder0_transformer2_multiheadattentioncell0_key_weight", 
      "attrs": {
        "__dtype__": "0", 
        "__lr_mult__": "1.0", 
        "__shape__": "(768, 768)", 
        "__storage_type__": "0", 
        "__wd_mult__": "1.0"
      }, 
      "inputs": []
    }, 
    {
      "op": "null", 
      "name": "bertencoder0_transformer2_multiheadattentioncell0_key_bias", 
      "attrs": {
        "__dtype__": "0", 
        "__init__": "zeros", 
        "__lr_mult__": "1.0", 
        "__shape__": "(768,)", 
        "__storage_type__": "0", 
        "__wd_mult__": "1.0"
      }, 
      "inputs": []
    }, 
    {
      "op": "FullyConnected", 
      "name": "bertencoder0_transformer2_multiheadattentioncell0_key_fwd", 
      "attrs": {
        "flatten": "False", 
        "no_bias": "False", 
        "num_hidden": "768"
      }, 
      "inputs": [[178, 0, 0], [186, 0, 0], [187, 0, 0]]
    }, 
    {
      "op": "Reshape", 
      "name": "bertencoder0_transformer2_multiheadattentioncell0_reshape2", 
      "attrs": {"shape": "(0, 0, 12, -1)"}, 
      "inputs": [[188, 0, 0]]
    }, 
    {
      "op": "transpose", 
      "name": "bertencoder0_transformer2_multiheadattentioncell0_transpose1", 
      "attrs": {"axes": "(0, 2, 1, 3)"}, 
      "inputs": [[189, 0, 0]]
    }, 
    {
      "op": "Reshape", 
      "name": "bertencoder0_transformer2_multiheadattentioncell0_reshape3", 
      "attrs": {
        "reverse": "True", 
        "shape": "(-1, 0, 0)"
      }, 
      "inputs": [[190, 0, 0]]
    }, 
    {
      "op": "batch_dot", 
      "name": "bertencoder0_transformer2_multiheadattentioncell0_batch_dot0", 
      "attrs": {"transpose_b": "True"}, 
      "inputs": [[185, 0, 0], [191, 0, 0]]
    }, 
    {
      "op": "ones_like", 
      "name": "bertencoder0_transformer2_multiheadattentioncell0_ones_like0", 
      "inputs": [[192, 0, 0]]
    }, 
    {
      "op": "_mul_scalar", 
      "name": "bertencoder0_transformer2_multiheadattentioncell0__mulscalar0", 
      "attrs": {"scalar": "-1e+18"}, 
      "inputs": [[193, 0, 0]]
    }, 
    {
      "op": "where", 
      "name": "bertencoder0_transformer2_multiheadattentioncell0_where0", 
      "inputs": [[52, 0, 0], [192, 0, 0], [194, 0, 0]]
    }, 
    {
      "op": "softmax", 
      "name": "bertencoder0_transformer2_multiheadattentioncell0_softmax0", 
      "attrs": {"axis": "-1"}, 
      "inputs": [[195, 0, 0]]
    }, 
    {
      "op": "elemwise_mul", 
      "name": "bertencoder0_transformer2_multiheadattentioncell0__mul0", 
      "inputs": [[196, 0, 0], [52, 0, 0]]
    }, 
    {
      "op": "Dropout", 
      "name": "bertencoder0_transformer2_dotproductattentioncell0_dropout0_fwd", 
      "attrs": {
        "axes": "()", 
        "cudnn_off": "False", 
        "p": "0.1"
      }, 
      "inputs": [[197, 0, 0]]
    }, 
    {
      "op": "Reshape", 
      "name": "bertencoder0_transformer2_multiheadattentioncell0_reshape5", 
      "attrs": {
        "reverse": "True", 
        "shape": "(-1, 12, 0, 0)"
      }, 
      "inputs": [[198, 0, 0]]
    }, 
    {
      "op": "Reshape", 
      "name": "bertencoder0_transformer2_multiheadattentioncell0_reshape6", 
      "attrs": {
        "reverse": "True", 
        "shape": "(-1, 0, 0)"
      }, 
      "inputs": [[199, 0, 0]]
    }, 
    {
      "op": "null", 
      "name": "bertencoder0_transformer2_multiheadattentioncell0_value_weight", 
      "attrs": {
        "__dtype__": "0", 
        "__lr_mult__": "1.0", 
        "__shape__": "(768, 768)", 
        "__storage_type__": "0", 
        "__wd_mult__": "1.0"
      }, 
      "inputs": []
    }, 
    {
      "op": "null", 
      "name": "bertencoder0_transformer2_multiheadattentioncell0_value_bias", 
      "attrs": {
        "__dtype__": "0", 
        "__init__": "zeros", 
        "__lr_mult__": "1.0", 
        "__shape__": "(768,)", 
        "__storage_type__": "0", 
        "__wd_mult__": "1.0"
      }, 
      "inputs": []
    }, 
    {
      "op": "FullyConnected", 
      "name": "bertencoder0_transformer2_multiheadattentioncell0_value_fwd", 
      "attrs": {
        "flatten": "False", 
        "no_bias": "False", 
        "num_hidden": "768"
      }, 
      "inputs": [[178, 0, 0], [201, 0, 0], [202, 0, 0]]
    }, 
    {
      "op": "Reshape", 
      "name": "bertencoder0_transformer2_multiheadattentioncell0_reshape7", 
      "attrs": {"shape": "(0, 0, 12, -1)"}, 
      "inputs": [[203, 0, 0]]
    }, 
    {
      "op": "transpose", 
      "name": "bertencoder0_transformer2_multiheadattentioncell0_transpose2", 
      "attrs": {"axes": "(0, 2, 1, 3)"}, 
      "inputs": [[204, 0, 0]]
    }, 
    {
      "op": "Reshape", 
      "name": "bertencoder0_transformer2_multiheadattentioncell0_reshape8", 
      "attrs": {
        "reverse": "True", 
        "shape": "(-1, 0, 0)"
      }, 
      "inputs": [[205, 0, 0]]
    }, 
    {
      "op": "batch_dot", 
      "name": "bertencoder0_transformer2_multiheadattentioncell0_batch_dot1", 
      "inputs": [[200, 0, 0], [206, 0, 0]]
    }, 
    {
      "op": "Reshape", 
      "name": "bertencoder0_transformer2_multiheadattentioncell0_reshape9", 
      "attrs": {
        "reverse": "True", 
        "shape": "(-1, 12, 0, 0)"
      }, 
      "inputs": [[207, 0, 0]]
    }, 
    {
      "op": "transpose", 
      "name": "bertencoder0_transformer2_multiheadattentioncell0_transpose3", 
      "attrs": {"axes": "(0, 2, 1, 3)"}, 
      "inputs": [[208, 0, 0]]
    }, 
    {
      "op": "Reshape", 
      "name": "bertencoder0_transformer2_multiheadattentioncell0_reshape10", 
      "attrs": {"shape": "(0, 0, -1)"}, 
      "inputs": [[209, 0, 0]]
    }, 
    {
      "op": "null", 
      "name": "bertencoder0_transformer2_proj_weight", 
      "attrs": {
        "__dtype__": "0", 
        "__lr_mult__": "1.0", 
        "__shape__": "(768, 768)", 
        "__storage_type__": "0", 
        "__wd_mult__": "1.0"
      }, 
      "inputs": []
    }, 
    {
      "op": "null", 
      "name": "bertencoder0_transformer2_proj_bias", 
      "attrs": {
        "__dtype__": "0", 
        "__init__": "zeros", 
        "__lr_mult__": "1.0", 
        "__shape__": "(768,)", 
        "__storage_type__": "0", 
        "__wd_mult__": "1.0"
      }, 
      "inputs": []
    }, 
    {
      "op": "FullyConnected", 
      "name": "bertencoder0_transformer2_proj_fwd", 
      "attrs": {
        "flatten": "False", 
        "no_bias": "False", 
        "num_hidden": "768"
      }, 
      "inputs": [[210, 0, 0], [211, 0, 0], [212, 0, 0]]
    }, 
    {
      "op": "Dropout", 
      "name": "bertencoder0_transformer2_dropout0_fwd", 
      "attrs": {
        "axes": "()", 
        "cudnn_off": "False", 
        "p": "0.1"
      }, 
      "inputs": [[213, 0, 0]]
    }, 
    {
      "op": "elemwise_add", 
      "name": "bertencoder0_transformer2__plus0", 
      "inputs": [[214, 0, 0], [178, 0, 0]]
    }, 
    {
      "op": "null", 
      "name": "bertencoder0_transformer2_bertlayernorm0_gamma", 
      "attrs": {
        "__dtype__": "0", 
        "__init__": "ones", 
        "__lr_mult__": "1.0", 
        "__shape__": "(768,)", 
        "__storage_type__": "0", 
        "__wd_mult__": "1.0"
      }, 
      "inputs": []
    }, 
    {
      "op": "null", 
      "name": "bertencoder0_transformer2_bertlayernorm0_beta", 
      "attrs": {
        "__dtype__": "0", 
        "__init__": "zeros", 
        "__lr_mult__": "1.0", 
        "__shape__": "(768,)", 
        "__storage_type__": "0", 
        "__wd_mult__": "1.0"
      }, 
      "inputs": []
    }, 
    {
      "op": "LayerNorm", 
      "name": "bertencoder0_transformer2_bertlayernorm0_layernorm0", 
      "attrs": {
        "axis": "-1", 
        "eps": "1e-12"
      }, 
      "inputs": [[215, 0, 0], [216, 0, 0], [217, 0, 0]]
    }, 
    {
      "op": "null", 
      "name": "bertencoder0_transformer2_bertpositionwiseffn0_ffn_1_weight", 
      "attrs": {
        "__dtype__": "0", 
        "__lr_mult__": "1.0", 
        "__shape__": "(3072, 768)", 
        "__storage_type__": "0", 
        "__wd_mult__": "1.0"
      }, 
      "inputs": []
    }, 
    {
      "op": "null", 
      "name": "bertencoder0_transformer2_bertpositionwiseffn0_ffn_1_bias", 
      "attrs": {
        "__dtype__": "0", 
        "__init__": "zeros", 
        "__lr_mult__": "1.0", 
        "__shape__": "(3072,)", 
        "__storage_type__": "0", 
        "__wd_mult__": "1.0"
      }, 
      "inputs": []
    }, 
    {
      "op": "FullyConnected", 
      "name": "bertencoder0_transformer2_bertpositionwiseffn0_ffn_1_fwd", 
      "attrs": {
        "flatten": "False", 
        "no_bias": "False", 
        "num_hidden": "3072"
      }, 
      "inputs": [[218, 0, 0], [219, 0, 0], [220, 0, 0]]
    }, 
    {
      "op": "_mul_scalar", 
      "name": "bertencoder0_transformer2_bertpositionwiseffn0_gelu0__mulscalar0", 
      "attrs": {"scalar": "0.5"}, 
      "inputs": [[221, 0, 0]]
    }, 
    {
      "op": "_div_scalar", 
      "name": "bertencoder0_transformer2_bertpositionwiseffn0_gelu0__divscalar0", 
      "attrs": {"scalar": "1.4142135623730951"}, 
      "inputs": [[221, 0, 0]]
    }, 
    {
      "op": "erf", 
      "name": "bertencoder0_transformer2_bertpositionwiseffn0_gelu0_erf0", 
      "inputs": [[223, 0, 0]]
    }, 
    {
      "op": "_plus_scalar", 
      "name": "bertencoder0_transformer2_bertpositionwiseffn0_gelu0__plusscalar0", 
      "attrs": {"scalar": "1.0"}, 
      "inputs": [[224, 0, 0]]
    }, 
    {
      "op": "elemwise_mul", 
      "name": "bertencoder0_transformer2_bertpositionwiseffn0_gelu0__mul0", 
      "inputs": [[222, 0, 0], [225, 0, 0]]
    }, 
    {
      "op": "null", 
      "name": "bertencoder0_transformer2_bertpositionwiseffn0_ffn_2_weight", 
      "attrs": {
        "__dtype__": "0", 
        "__lr_mult__": "1.0", 
        "__shape__": "(768, 3072)", 
        "__storage_type__": "0", 
        "__wd_mult__": "1.0"
      }, 
      "inputs": []
    }, 
    {
      "op": "null", 
      "name": "bertencoder0_transformer2_bertpositionwiseffn0_ffn_2_bias", 
      "attrs": {
        "__dtype__": "0", 
        "__init__": "zeros", 
        "__lr_mult__": "1.0", 
        "__shape__": "(768,)", 
        "__storage_type__": "0", 
        "__wd_mult__": "1.0"
      }, 
      "inputs": []
    }, 
    {
      "op": "FullyConnected", 
      "name": "bertencoder0_transformer2_bertpositionwiseffn0_ffn_2_fwd", 
      "attrs": {
        "flatten": "False", 
        "no_bias": "False", 
        "num_hidden": "768"
      }, 
      "inputs": [[226, 0, 0], [227, 0, 0], [228, 0, 0]]
    }, 
    {
      "op": "Dropout", 
      "name": "bertencoder0_transformer2_bertpositionwiseffn0_dropout0_fwd", 
      "attrs": {
        "axes": "()", 
        "cudnn_off": "False", 
        "p": "0.1"
      }, 
      "inputs": [[229, 0, 0]]
    }, 
    {
      "op": "elemwise_add", 
      "name": "bertencoder0_transformer2_bertpositionwiseffn0__plus0", 
      "inputs": [[230, 0, 0], [218, 0, 0]]
    }, 
    {
      "op": "null", 
      "name": "bertencoder0_transformer2_bertpositionwiseffn0_bertlayernorm0_gamma", 
      "attrs": {
        "__dtype__": "0", 
        "__init__": "ones", 
        "__lr_mult__": "1.0", 
        "__shape__": "(768,)", 
        "__storage_type__": "0", 
        "__wd_mult__": "1.0"
      }, 
      "inputs": []
    }, 
    {
      "op": "null", 
      "name": "bertencoder0_transformer2_bertpositionwiseffn0_bertlayernorm0_beta", 
      "attrs": {
        "__dtype__": "0", 
        "__init__": "zeros", 
        "__lr_mult__": "1.0", 
        "__shape__": "(768,)", 
        "__storage_type__": "0", 
        "__wd_mult__": "1.0"
      }, 
      "inputs": []
    }, 
    {
      "op": "LayerNorm", 
      "name": "bertencoder0_transformer2_bertpositionwiseffn0_bertlayernorm0_layernorm0", 
      "attrs": {
        "axis": "-1", 
        "eps": "1e-12"
      }, 
      "inputs": [[231, 0, 0], [232, 0, 0], [233, 0, 0]]
    }, 
    {
      "op": "null", 
      "name": "bertencoder0_transformer3_multiheadattentioncell0_query_weight", 
      "attrs": {
        "__dtype__": "0", 
        "__lr_mult__": "1.0", 
        "__shape__": "(768, 768)", 
        "__storage_type__": "0", 
        "__wd_mult__": "1.0"
      }, 
      "inputs": []
    }, 
    {
      "op": "null", 
      "name": "bertencoder0_transformer3_multiheadattentioncell0_query_bias", 
      "attrs": {
        "__dtype__": "0", 
        "__init__": "zeros", 
        "__lr_mult__": "1.0", 
        "__shape__": "(768,)", 
        "__storage_type__": "0", 
        "__wd_mult__": "1.0"
      }, 
      "inputs": []
    }, 
    {
      "op": "FullyConnected", 
      "name": "bertencoder0_transformer3_multiheadattentioncell0_query_fwd", 
      "attrs": {
        "flatten": "False", 
        "no_bias": "False", 
        "num_hidden": "768"
      }, 
      "inputs": [[234, 0, 0], [235, 0, 0], [236, 0, 0]]
    }, 
    {
      "op": "Reshape", 
      "name": "bertencoder0_transformer3_multiheadattentioncell0_reshape0", 
      "attrs": {"shape": "(0, 0, 12, -1)"}, 
      "inputs": [[237, 0, 0]]
    }, 
    {
      "op": "transpose", 
      "name": "bertencoder0_transformer3_multiheadattentioncell0_transpose0", 
      "attrs": {"axes": "(0, 2, 1, 3)"}, 
      "inputs": [[238, 0, 0]]
    }, 
    {
      "op": "Reshape", 
      "name": "bertencoder0_transformer3_multiheadattentioncell0_reshape1", 
      "attrs": {
        "reverse": "True", 
        "shape": "(-1, 0, 0)"
      }, 
      "inputs": [[239, 0, 0]]
    }, 
    {
      "op": "_contrib_div_sqrt_dim", 
      "name": "bertencoder0_transformer3_multiheadattentioncell0_div_sqrt_dim0", 
      "inputs": [[240, 0, 0]]
    }, 
    {
      "op": "null", 
      "name": "bertencoder0_transformer3_multiheadattentioncell0_key_weight", 
      "attrs": {
        "__dtype__": "0", 
        "__lr_mult__": "1.0", 
        "__shape__": "(768, 768)", 
        "__storage_type__": "0", 
        "__wd_mult__": "1.0"
      }, 
      "inputs": []
    }, 
    {
      "op": "null", 
      "name": "bertencoder0_transformer3_multiheadattentioncell0_key_bias", 
      "attrs": {
        "__dtype__": "0", 
        "__init__": "zeros", 
        "__lr_mult__": "1.0", 
        "__shape__": "(768,)", 
        "__storage_type__": "0", 
        "__wd_mult__": "1.0"
      }, 
      "inputs": []
    }, 
    {
      "op": "FullyConnected", 
      "name": "bertencoder0_transformer3_multiheadattentioncell0_key_fwd", 
      "attrs": {
        "flatten": "False", 
        "no_bias": "False", 
        "num_hidden": "768"
      }, 
      "inputs": [[234, 0, 0], [242, 0, 0], [243, 0, 0]]
    }, 
    {
      "op": "Reshape", 
      "name": "bertencoder0_transformer3_multiheadattentioncell0_reshape2", 
      "attrs": {"shape": "(0, 0, 12, -1)"}, 
      "inputs": [[244, 0, 0]]
    }, 
    {
      "op": "transpose", 
      "name": "bertencoder0_transformer3_multiheadattentioncell0_transpose1", 
      "attrs": {"axes": "(0, 2, 1, 3)"}, 
      "inputs": [[245, 0, 0]]
    }, 
    {
      "op": "Reshape", 
      "name": "bertencoder0_transformer3_multiheadattentioncell0_reshape3", 
      "attrs": {
        "reverse": "True", 
        "shape": "(-1, 0, 0)"
      }, 
      "inputs": [[246, 0, 0]]
    }, 
    {
      "op": "batch_dot", 
      "name": "bertencoder0_transformer3_multiheadattentioncell0_batch_dot0", 
      "attrs": {"transpose_b": "True"}, 
      "inputs": [[241, 0, 0], [247, 0, 0]]
    }, 
    {
      "op": "ones_like", 
      "name": "bertencoder0_transformer3_multiheadattentioncell0_ones_like0", 
      "inputs": [[248, 0, 0]]
    }, 
    {
      "op": "_mul_scalar", 
      "name": "bertencoder0_transformer3_multiheadattentioncell0__mulscalar0", 
      "attrs": {"scalar": "-1e+18"}, 
      "inputs": [[249, 0, 0]]
    }, 
    {
      "op": "where", 
      "name": "bertencoder0_transformer3_multiheadattentioncell0_where0", 
      "inputs": [[49, 0, 0], [248, 0, 0], [250, 0, 0]]
    }, 
    {
      "op": "softmax", 
      "name": "bertencoder0_transformer3_multiheadattentioncell0_softmax0", 
      "attrs": {"axis": "-1"}, 
      "inputs": [[251, 0, 0]]
    }, 
    {
      "op": "elemwise_mul", 
      "name": "bertencoder0_transformer3_multiheadattentioncell0__mul0", 
      "inputs": [[252, 0, 0], [49, 0, 0]]
    }, 
    {
      "op": "Dropout", 
      "name": "bertencoder0_transformer3_dotproductattentioncell0_dropout0_fwd", 
      "attrs": {
        "axes": "()", 
        "cudnn_off": "False", 
        "p": "0.1"
      }, 
      "inputs": [[253, 0, 0]]
    }, 
    {
      "op": "Reshape", 
      "name": "bertencoder0_transformer3_multiheadattentioncell0_reshape5", 
      "attrs": {
        "reverse": "True", 
        "shape": "(-1, 12, 0, 0)"
      }, 
      "inputs": [[254, 0, 0]]
    }, 
    {
      "op": "Reshape", 
      "name": "bertencoder0_transformer3_multiheadattentioncell0_reshape6", 
      "attrs": {
        "reverse": "True", 
        "shape": "(-1, 0, 0)"
      }, 
      "inputs": [[255, 0, 0]]
    }, 
    {
      "op": "null", 
      "name": "bertencoder0_transformer3_multiheadattentioncell0_value_weight", 
      "attrs": {
        "__dtype__": "0", 
        "__lr_mult__": "1.0", 
        "__shape__": "(768, 768)", 
        "__storage_type__": "0", 
        "__wd_mult__": "1.0"
      }, 
      "inputs": []
    }, 
    {
      "op": "null", 
      "name": "bertencoder0_transformer3_multiheadattentioncell0_value_bias", 
      "attrs": {
        "__dtype__": "0", 
        "__init__": "zeros", 
        "__lr_mult__": "1.0", 
        "__shape__": "(768,)", 
        "__storage_type__": "0", 
        "__wd_mult__": "1.0"
      }, 
      "inputs": []
    }, 
    {
      "op": "FullyConnected", 
      "name": "bertencoder0_transformer3_multiheadattentioncell0_value_fwd", 
      "attrs": {
        "flatten": "False", 
        "no_bias": "False", 
        "num_hidden": "768"
      }, 
      "inputs": [[234, 0, 0], [257, 0, 0], [258, 0, 0]]
    }, 
    {
      "op": "Reshape", 
      "name": "bertencoder0_transformer3_multiheadattentioncell0_reshape7", 
      "attrs": {"shape": "(0, 0, 12, -1)"}, 
      "inputs": [[259, 0, 0]]
    }, 
    {
      "op": "transpose", 
      "name": "bertencoder0_transformer3_multiheadattentioncell0_transpose2", 
      "attrs": {"axes": "(0, 2, 1, 3)"}, 
      "inputs": [[260, 0, 0]]
    }, 
    {
      "op": "Reshape", 
      "name": "bertencoder0_transformer3_multiheadattentioncell0_reshape8", 
      "attrs": {
        "reverse": "True", 
        "shape": "(-1, 0, 0)"
      }, 
      "inputs": [[261, 0, 0]]
    }, 
    {
      "op": "batch_dot", 
      "name": "bertencoder0_transformer3_multiheadattentioncell0_batch_dot1", 
      "inputs": [[256, 0, 0], [262, 0, 0]]
    }, 
    {
      "op": "Reshape", 
      "name": "bertencoder0_transformer3_multiheadattentioncell0_reshape9", 
      "attrs": {
        "reverse": "True", 
        "shape": "(-1, 12, 0, 0)"
      }, 
      "inputs": [[263, 0, 0]]
    }, 
    {
      "op": "transpose", 
      "name": "bertencoder0_transformer3_multiheadattentioncell0_transpose3", 
      "attrs": {"axes": "(0, 2, 1, 3)"}, 
      "inputs": [[264, 0, 0]]
    }, 
    {
      "op": "Reshape", 
      "name": "bertencoder0_transformer3_multiheadattentioncell0_reshape10", 
      "attrs": {"shape": "(0, 0, -1)"}, 
      "inputs": [[265, 0, 0]]
    }, 
    {
      "op": "null", 
      "name": "bertencoder0_transformer3_proj_weight", 
      "attrs": {
        "__dtype__": "0", 
        "__lr_mult__": "1.0", 
        "__shape__": "(768, 768)", 
        "__storage_type__": "0", 
        "__wd_mult__": "1.0"
      }, 
      "inputs": []
    }, 
    {
      "op": "null", 
      "name": "bertencoder0_transformer3_proj_bias", 
      "attrs": {
        "__dtype__": "0", 
        "__init__": "zeros", 
        "__lr_mult__": "1.0", 
        "__shape__": "(768,)", 
        "__storage_type__": "0", 
        "__wd_mult__": "1.0"
      }, 
      "inputs": []
    }, 
    {
      "op": "FullyConnected", 
      "name": "bertencoder0_transformer3_proj_fwd", 
      "attrs": {
        "flatten": "False", 
        "no_bias": "False", 
        "num_hidden": "768"
      }, 
      "inputs": [[266, 0, 0], [267, 0, 0], [268, 0, 0]]
    }, 
    {
      "op": "Dropout", 
      "name": "bertencoder0_transformer3_dropout0_fwd", 
      "attrs": {
        "axes": "()", 
        "cudnn_off": "False", 
        "p": "0.1"
      }, 
      "inputs": [[269, 0, 0]]
    }, 
    {
      "op": "elemwise_add", 
      "name": "bertencoder0_transformer3__plus0", 
      "inputs": [[270, 0, 0], [234, 0, 0]]
    }, 
    {
      "op": "null", 
      "name": "bertencoder0_transformer3_bertlayernorm0_gamma", 
      "attrs": {
        "__dtype__": "0", 
        "__init__": "ones", 
        "__lr_mult__": "1.0", 
        "__shape__": "(768,)", 
        "__storage_type__": "0", 
        "__wd_mult__": "1.0"
      }, 
      "inputs": []
    }, 
    {
      "op": "null", 
      "name": "bertencoder0_transformer3_bertlayernorm0_beta", 
      "attrs": {
        "__dtype__": "0", 
        "__init__": "zeros", 
        "__lr_mult__": "1.0", 
        "__shape__": "(768,)", 
        "__storage_type__": "0", 
        "__wd_mult__": "1.0"
      }, 
      "inputs": []
    }, 
    {
      "op": "LayerNorm", 
      "name": "bertencoder0_transformer3_bertlayernorm0_layernorm0", 
      "attrs": {
        "axis": "-1", 
        "eps": "1e-12"
      }, 
      "inputs": [[271, 0, 0], [272, 0, 0], [273, 0, 0]]
    }, 
    {
      "op": "null", 
      "name": "bertencoder0_transformer3_bertpositionwiseffn0_ffn_1_weight", 
      "attrs": {
        "__dtype__": "0", 
        "__lr_mult__": "1.0", 
        "__shape__": "(3072, 768)", 
        "__storage_type__": "0", 
        "__wd_mult__": "1.0"
      }, 
      "inputs": []
    }, 
    {
      "op": "null", 
      "name": "bertencoder0_transformer3_bertpositionwiseffn0_ffn_1_bias", 
      "attrs": {
        "__dtype__": "0", 
        "__init__": "zeros", 
        "__lr_mult__": "1.0", 
        "__shape__": "(3072,)", 
        "__storage_type__": "0", 
        "__wd_mult__": "1.0"
      }, 
      "inputs": []
    }, 
    {
      "op": "FullyConnected", 
      "name": "bertencoder0_transformer3_bertpositionwiseffn0_ffn_1_fwd", 
      "attrs": {
        "flatten": "False", 
        "no_bias": "False", 
        "num_hidden": "3072"
      }, 
      "inputs": [[274, 0, 0], [275, 0, 0], [276, 0, 0]]
    }, 
    {
      "op": "_mul_scalar", 
      "name": "bertencoder0_transformer3_bertpositionwiseffn0_gelu0__mulscalar0", 
      "attrs": {"scalar": "0.5"}, 
      "inputs": [[277, 0, 0]]
    }, 
    {
      "op": "_div_scalar", 
      "name": "bertencoder0_transformer3_bertpositionwiseffn0_gelu0__divscalar0", 
      "attrs": {"scalar": "1.4142135623730951"}, 
      "inputs": [[277, 0, 0]]
    }, 
    {
      "op": "erf", 
      "name": "bertencoder0_transformer3_bertpositionwiseffn0_gelu0_erf0", 
      "inputs": [[279, 0, 0]]
    }, 
    {
      "op": "_plus_scalar", 
      "name": "bertencoder0_transformer3_bertpositionwiseffn0_gelu0__plusscalar0", 
      "attrs": {"scalar": "1.0"}, 
      "inputs": [[280, 0, 0]]
    }, 
    {
      "op": "elemwise_mul", 
      "name": "bertencoder0_transformer3_bertpositionwiseffn0_gelu0__mul0", 
      "inputs": [[278, 0, 0], [281, 0, 0]]
    }, 
    {
      "op": "null", 
      "name": "bertencoder0_transformer3_bertpositionwiseffn0_ffn_2_weight", 
      "attrs": {
        "__dtype__": "0", 
        "__lr_mult__": "1.0", 
        "__shape__": "(768, 3072)", 
        "__storage_type__": "0", 
        "__wd_mult__": "1.0"
      }, 
      "inputs": []
    }, 
    {
      "op": "null", 
      "name": "bertencoder0_transformer3_bertpositionwiseffn0_ffn_2_bias", 
      "attrs": {
        "__dtype__": "0", 
        "__init__": "zeros", 
        "__lr_mult__": "1.0", 
        "__shape__": "(768,)", 
        "__storage_type__": "0", 
        "__wd_mult__": "1.0"
      }, 
      "inputs": []
    }, 
    {
      "op": "FullyConnected", 
      "name": "bertencoder0_transformer3_bertpositionwiseffn0_ffn_2_fwd", 
      "attrs": {
        "flatten": "False", 
        "no_bias": "False", 
        "num_hidden": "768"
      }, 
      "inputs": [[282, 0, 0], [283, 0, 0], [284, 0, 0]]
    }, 
    {
      "op": "Dropout", 
      "name": "bertencoder0_transformer3_bertpositionwiseffn0_dropout0_fwd", 
      "attrs": {
        "axes": "()", 
        "cudnn_off": "False", 
        "p": "0.1"
      }, 
      "inputs": [[285, 0, 0]]
    }, 
    {
      "op": "elemwise_add", 
      "name": "bertencoder0_transformer3_bertpositionwiseffn0__plus0", 
      "inputs": [[286, 0, 0], [274, 0, 0]]
    }, 
    {
      "op": "null", 
      "name": "bertencoder0_transformer3_bertpositionwiseffn0_bertlayernorm0_gamma", 
      "attrs": {
        "__dtype__": "0", 
        "__init__": "ones", 
        "__lr_mult__": "1.0", 
        "__shape__": "(768,)", 
        "__storage_type__": "0", 
        "__wd_mult__": "1.0"
      }, 
      "inputs": []
    }, 
    {
      "op": "null", 
      "name": "bertencoder0_transformer3_bertpositionwiseffn0_bertlayernorm0_beta", 
      "attrs": {
        "__dtype__": "0", 
        "__init__": "zeros", 
        "__lr_mult__": "1.0", 
        "__shape__": "(768,)", 
        "__storage_type__": "0", 
        "__wd_mult__": "1.0"
      }, 
      "inputs": []
    }, 
    {
      "op": "LayerNorm", 
      "name": "bertencoder0_transformer3_bertpositionwiseffn0_bertlayernorm0_layernorm0", 
      "attrs": {
        "axis": "-1", 
        "eps": "1e-12"
      }, 
      "inputs": [[287, 0, 0], [288, 0, 0], [289, 0, 0]]
    }, 
    {
      "op": "null", 
      "name": "bertencoder0_transformer4_multiheadattentioncell0_query_weight", 
      "attrs": {
        "__dtype__": "0", 
        "__lr_mult__": "1.0", 
        "__shape__": "(768, 768)", 
        "__storage_type__": "0", 
        "__wd_mult__": "1.0"
      }, 
      "inputs": []
    }, 
    {
      "op": "null", 
      "name": "bertencoder0_transformer4_multiheadattentioncell0_query_bias", 
      "attrs": {
        "__dtype__": "0", 
        "__init__": "zeros", 
        "__lr_mult__": "1.0", 
        "__shape__": "(768,)", 
        "__storage_type__": "0", 
        "__wd_mult__": "1.0"
      }, 
      "inputs": []
    }, 
    {
      "op": "FullyConnected", 
      "name": "bertencoder0_transformer4_multiheadattentioncell0_query_fwd", 
      "attrs": {
        "flatten": "False", 
        "no_bias": "False", 
        "num_hidden": "768"
      }, 
      "inputs": [[290, 0, 0], [291, 0, 0], [292, 0, 0]]
    }, 
    {
      "op": "Reshape", 
      "name": "bertencoder0_transformer4_multiheadattentioncell0_reshape0", 
      "attrs": {"shape": "(0, 0, 12, -1)"}, 
      "inputs": [[293, 0, 0]]
    }, 
    {
      "op": "transpose", 
      "name": "bertencoder0_transformer4_multiheadattentioncell0_transpose0", 
      "attrs": {"axes": "(0, 2, 1, 3)"}, 
      "inputs": [[294, 0, 0]]
    }, 
    {
      "op": "Reshape", 
      "name": "bertencoder0_transformer4_multiheadattentioncell0_reshape1", 
      "attrs": {
        "reverse": "True", 
        "shape": "(-1, 0, 0)"
      }, 
      "inputs": [[295, 0, 0]]
    }, 
    {
      "op": "_contrib_div_sqrt_dim", 
      "name": "bertencoder0_transformer4_multiheadattentioncell0_div_sqrt_dim0", 
      "inputs": [[296, 0, 0]]
    }, 
    {
      "op": "null", 
      "name": "bertencoder0_transformer4_multiheadattentioncell0_key_weight", 
      "attrs": {
        "__dtype__": "0", 
        "__lr_mult__": "1.0", 
        "__shape__": "(768, 768)", 
        "__storage_type__": "0", 
        "__wd_mult__": "1.0"
      }, 
      "inputs": []
    }, 
    {
      "op": "null", 
      "name": "bertencoder0_transformer4_multiheadattentioncell0_key_bias", 
      "attrs": {
        "__dtype__": "0", 
        "__init__": "zeros", 
        "__lr_mult__": "1.0", 
        "__shape__": "(768,)", 
        "__storage_type__": "0", 
        "__wd_mult__": "1.0"
      }, 
      "inputs": []
    }, 
    {
      "op": "FullyConnected", 
      "name": "bertencoder0_transformer4_multiheadattentioncell0_key_fwd", 
      "attrs": {
        "flatten": "False", 
        "no_bias": "False", 
        "num_hidden": "768"
      }, 
      "inputs": [[290, 0, 0], [298, 0, 0], [299, 0, 0]]
    }, 
    {
      "op": "Reshape", 
      "name": "bertencoder0_transformer4_multiheadattentioncell0_reshape2", 
      "attrs": {"shape": "(0, 0, 12, -1)"}, 
      "inputs": [[300, 0, 0]]
    }, 
    {
      "op": "transpose", 
      "name": "bertencoder0_transformer4_multiheadattentioncell0_transpose1", 
      "attrs": {"axes": "(0, 2, 1, 3)"}, 
      "inputs": [[301, 0, 0]]
    }, 
    {
      "op": "Reshape", 
      "name": "bertencoder0_transformer4_multiheadattentioncell0_reshape3", 
      "attrs": {
        "reverse": "True", 
        "shape": "(-1, 0, 0)"
      }, 
      "inputs": [[302, 0, 0]]
    }, 
    {
      "op": "batch_dot", 
      "name": "bertencoder0_transformer4_multiheadattentioncell0_batch_dot0", 
      "attrs": {"transpose_b": "True"}, 
      "inputs": [[297, 0, 0], [303, 0, 0]]
    }, 
    {
      "op": "ones_like", 
      "name": "bertencoder0_transformer4_multiheadattentioncell0_ones_like0", 
      "inputs": [[304, 0, 0]]
    }, 
    {
      "op": "_mul_scalar", 
      "name": "bertencoder0_transformer4_multiheadattentioncell0__mulscalar0", 
      "attrs": {"scalar": "-1e+18"}, 
      "inputs": [[305, 0, 0]]
    }, 
    {
      "op": "where", 
      "name": "bertencoder0_transformer4_multiheadattentioncell0_where0", 
      "inputs": [[46, 0, 0], [304, 0, 0], [306, 0, 0]]
    }, 
    {
      "op": "softmax", 
      "name": "bertencoder0_transformer4_multiheadattentioncell0_softmax0", 
      "attrs": {"axis": "-1"}, 
      "inputs": [[307, 0, 0]]
    }, 
    {
      "op": "elemwise_mul", 
      "name": "bertencoder0_transformer4_multiheadattentioncell0__mul0", 
      "inputs": [[308, 0, 0], [46, 0, 0]]
    }, 
    {
      "op": "Dropout", 
      "name": "bertencoder0_transformer4_dotproductattentioncell0_dropout0_fwd", 
      "attrs": {
        "axes": "()", 
        "cudnn_off": "False", 
        "p": "0.1"
      }, 
      "inputs": [[309, 0, 0]]
    }, 
    {
      "op": "Reshape", 
      "name": "bertencoder0_transformer4_multiheadattentioncell0_reshape5", 
      "attrs": {
        "reverse": "True", 
        "shape": "(-1, 12, 0, 0)"
      }, 
      "inputs": [[310, 0, 0]]
    }, 
    {
      "op": "Reshape", 
      "name": "bertencoder0_transformer4_multiheadattentioncell0_reshape6", 
      "attrs": {
        "reverse": "True", 
        "shape": "(-1, 0, 0)"
      }, 
      "inputs": [[311, 0, 0]]
    }, 
    {
      "op": "null", 
      "name": "bertencoder0_transformer4_multiheadattentioncell0_value_weight", 
      "attrs": {
        "__dtype__": "0", 
        "__lr_mult__": "1.0", 
        "__shape__": "(768, 768)", 
        "__storage_type__": "0", 
        "__wd_mult__": "1.0"
      }, 
      "inputs": []
    }, 
    {
      "op": "null", 
      "name": "bertencoder0_transformer4_multiheadattentioncell0_value_bias", 
      "attrs": {
        "__dtype__": "0", 
        "__init__": "zeros", 
        "__lr_mult__": "1.0", 
        "__shape__": "(768,)", 
        "__storage_type__": "0", 
        "__wd_mult__": "1.0"
      }, 
      "inputs": []
    }, 
    {
      "op": "FullyConnected", 
      "name": "bertencoder0_transformer4_multiheadattentioncell0_value_fwd", 
      "attrs": {
        "flatten": "False", 
        "no_bias": "False", 
        "num_hidden": "768"
      }, 
      "inputs": [[290, 0, 0], [313, 0, 0], [314, 0, 0]]
    }, 
    {
      "op": "Reshape", 
      "name": "bertencoder0_transformer4_multiheadattentioncell0_reshape7", 
      "attrs": {"shape": "(0, 0, 12, -1)"}, 
      "inputs": [[315, 0, 0]]
    }, 
    {
      "op": "transpose", 
      "name": "bertencoder0_transformer4_multiheadattentioncell0_transpose2", 
      "attrs": {"axes": "(0, 2, 1, 3)"}, 
      "inputs": [[316, 0, 0]]
    }, 
    {
      "op": "Reshape", 
      "name": "bertencoder0_transformer4_multiheadattentioncell0_reshape8", 
      "attrs": {
        "reverse": "True", 
        "shape": "(-1, 0, 0)"
      }, 
      "inputs": [[317, 0, 0]]
    }, 
    {
      "op": "batch_dot", 
      "name": "bertencoder0_transformer4_multiheadattentioncell0_batch_dot1", 
      "inputs": [[312, 0, 0], [318, 0, 0]]
    }, 
    {
      "op": "Reshape", 
      "name": "bertencoder0_transformer4_multiheadattentioncell0_reshape9", 
      "attrs": {
        "reverse": "True", 
        "shape": "(-1, 12, 0, 0)"
      }, 
      "inputs": [[319, 0, 0]]
    }, 
    {
      "op": "transpose", 
      "name": "bertencoder0_transformer4_multiheadattentioncell0_transpose3", 
      "attrs": {"axes": "(0, 2, 1, 3)"}, 
      "inputs": [[320, 0, 0]]
    }, 
    {
      "op": "Reshape", 
      "name": "bertencoder0_transformer4_multiheadattentioncell0_reshape10", 
      "attrs": {"shape": "(0, 0, -1)"}, 
      "inputs": [[321, 0, 0]]
    }, 
    {
      "op": "null", 
      "name": "bertencoder0_transformer4_proj_weight", 
      "attrs": {
        "__dtype__": "0", 
        "__lr_mult__": "1.0", 
        "__shape__": "(768, 768)", 
        "__storage_type__": "0", 
        "__wd_mult__": "1.0"
      }, 
      "inputs": []
    }, 
    {
      "op": "null", 
      "name": "bertencoder0_transformer4_proj_bias", 
      "attrs": {
        "__dtype__": "0", 
        "__init__": "zeros", 
        "__lr_mult__": "1.0", 
        "__shape__": "(768,)", 
        "__storage_type__": "0", 
        "__wd_mult__": "1.0"
      }, 
      "inputs": []
    }, 
    {
      "op": "FullyConnected", 
      "name": "bertencoder0_transformer4_proj_fwd", 
      "attrs": {
        "flatten": "False", 
        "no_bias": "False", 
        "num_hidden": "768"
      }, 
      "inputs": [[322, 0, 0], [323, 0, 0], [324, 0, 0]]
    }, 
    {
      "op": "Dropout", 
      "name": "bertencoder0_transformer4_dropout0_fwd", 
      "attrs": {
        "axes": "()", 
        "cudnn_off": "False", 
        "p": "0.1"
      }, 
      "inputs": [[325, 0, 0]]
    }, 
    {
      "op": "elemwise_add", 
      "name": "bertencoder0_transformer4__plus0", 
      "inputs": [[326, 0, 0], [290, 0, 0]]
    }, 
    {
      "op": "null", 
      "name": "bertencoder0_transformer4_bertlayernorm0_gamma", 
      "attrs": {
        "__dtype__": "0", 
        "__init__": "ones", 
        "__lr_mult__": "1.0", 
        "__shape__": "(768,)", 
        "__storage_type__": "0", 
        "__wd_mult__": "1.0"
      }, 
      "inputs": []
    }, 
    {
      "op": "null", 
      "name": "bertencoder0_transformer4_bertlayernorm0_beta", 
      "attrs": {
        "__dtype__": "0", 
        "__init__": "zeros", 
        "__lr_mult__": "1.0", 
        "__shape__": "(768,)", 
        "__storage_type__": "0", 
        "__wd_mult__": "1.0"
      }, 
      "inputs": []
    }, 
    {
      "op": "LayerNorm", 
      "name": "bertencoder0_transformer4_bertlayernorm0_layernorm0", 
      "attrs": {
        "axis": "-1", 
        "eps": "1e-12"
      }, 
      "inputs": [[327, 0, 0], [328, 0, 0], [329, 0, 0]]
    }, 
    {
      "op": "null", 
      "name": "bertencoder0_transformer4_bertpositionwiseffn0_ffn_1_weight", 
      "attrs": {
        "__dtype__": "0", 
        "__lr_mult__": "1.0", 
        "__shape__": "(3072, 768)", 
        "__storage_type__": "0", 
        "__wd_mult__": "1.0"
      }, 
      "inputs": []
    }, 
    {
      "op": "null", 
      "name": "bertencoder0_transformer4_bertpositionwiseffn0_ffn_1_bias", 
      "attrs": {
        "__dtype__": "0", 
        "__init__": "zeros", 
        "__lr_mult__": "1.0", 
        "__shape__": "(3072,)", 
        "__storage_type__": "0", 
        "__wd_mult__": "1.0"
      }, 
      "inputs": []
    }, 
    {
      "op": "FullyConnected", 
      "name": "bertencoder0_transformer4_bertpositionwiseffn0_ffn_1_fwd", 
      "attrs": {
        "flatten": "False", 
        "no_bias": "False", 
        "num_hidden": "3072"
      }, 
      "inputs": [[330, 0, 0], [331, 0, 0], [332, 0, 0]]
    }, 
    {
      "op": "_mul_scalar", 
      "name": "bertencoder0_transformer4_bertpositionwiseffn0_gelu0__mulscalar0", 
      "attrs": {"scalar": "0.5"}, 
      "inputs": [[333, 0, 0]]
    }, 
    {
      "op": "_div_scalar", 
      "name": "bertencoder0_transformer4_bertpositionwiseffn0_gelu0__divscalar0", 
      "attrs": {"scalar": "1.4142135623730951"}, 
      "inputs": [[333, 0, 0]]
    }, 
    {
      "op": "erf", 
      "name": "bertencoder0_transformer4_bertpositionwiseffn0_gelu0_erf0", 
      "inputs": [[335, 0, 0]]
    }, 
    {
      "op": "_plus_scalar", 
      "name": "bertencoder0_transformer4_bertpositionwiseffn0_gelu0__plusscalar0", 
      "attrs": {"scalar": "1.0"}, 
      "inputs": [[336, 0, 0]]
    }, 
    {
      "op": "elemwise_mul", 
      "name": "bertencoder0_transformer4_bertpositionwiseffn0_gelu0__mul0", 
      "inputs": [[334, 0, 0], [337, 0, 0]]
    }, 
    {
      "op": "null", 
      "name": "bertencoder0_transformer4_bertpositionwiseffn0_ffn_2_weight", 
      "attrs": {
        "__dtype__": "0", 
        "__lr_mult__": "1.0", 
        "__shape__": "(768, 3072)", 
        "__storage_type__": "0", 
        "__wd_mult__": "1.0"
      }, 
      "inputs": []
    }, 
    {
      "op": "null", 
      "name": "bertencoder0_transformer4_bertpositionwiseffn0_ffn_2_bias", 
      "attrs": {
        "__dtype__": "0", 
        "__init__": "zeros", 
        "__lr_mult__": "1.0", 
        "__shape__": "(768,)", 
        "__storage_type__": "0", 
        "__wd_mult__": "1.0"
      }, 
      "inputs": []
    }, 
    {
      "op": "FullyConnected", 
      "name": "bertencoder0_transformer4_bertpositionwiseffn0_ffn_2_fwd", 
      "attrs": {
        "flatten": "False", 
        "no_bias": "False", 
        "num_hidden": "768"
      }, 
      "inputs": [[338, 0, 0], [339, 0, 0], [340, 0, 0]]
    }, 
    {
      "op": "Dropout", 
      "name": "bertencoder0_transformer4_bertpositionwiseffn0_dropout0_fwd", 
      "attrs": {
        "axes": "()", 
        "cudnn_off": "False", 
        "p": "0.1"
      }, 
      "inputs": [[341, 0, 0]]
    }, 
    {
      "op": "elemwise_add", 
      "name": "bertencoder0_transformer4_bertpositionwiseffn0__plus0", 
      "inputs": [[342, 0, 0], [330, 0, 0]]
    }, 
    {
      "op": "null", 
      "name": "bertencoder0_transformer4_bertpositionwiseffn0_bertlayernorm0_gamma", 
      "attrs": {
        "__dtype__": "0", 
        "__init__": "ones", 
        "__lr_mult__": "1.0", 
        "__shape__": "(768,)", 
        "__storage_type__": "0", 
        "__wd_mult__": "1.0"
      }, 
      "inputs": []
    }, 
    {
      "op": "null", 
      "name": "bertencoder0_transformer4_bertpositionwiseffn0_bertlayernorm0_beta", 
      "attrs": {
        "__dtype__": "0", 
        "__init__": "zeros", 
        "__lr_mult__": "1.0", 
        "__shape__": "(768,)", 
        "__storage_type__": "0", 
        "__wd_mult__": "1.0"
      }, 
      "inputs": []
    }, 
    {
      "op": "LayerNorm", 
      "name": "bertencoder0_transformer4_bertpositionwiseffn0_bertlayernorm0_layernorm0", 
      "attrs": {
        "axis": "-1", 
        "eps": "1e-12"
      }, 
      "inputs": [[343, 0, 0], [344, 0, 0], [345, 0, 0]]
    }, 
    {
      "op": "null", 
      "name": "bertencoder0_transformer5_multiheadattentioncell0_query_weight", 
      "attrs": {
        "__dtype__": "0", 
        "__lr_mult__": "1.0", 
        "__shape__": "(768, 768)", 
        "__storage_type__": "0", 
        "__wd_mult__": "1.0"
      }, 
      "inputs": []
    }, 
    {
      "op": "null", 
      "name": "bertencoder0_transformer5_multiheadattentioncell0_query_bias", 
      "attrs": {
        "__dtype__": "0", 
        "__init__": "zeros", 
        "__lr_mult__": "1.0", 
        "__shape__": "(768,)", 
        "__storage_type__": "0", 
        "__wd_mult__": "1.0"
      }, 
      "inputs": []
    }, 
    {
      "op": "FullyConnected", 
      "name": "bertencoder0_transformer5_multiheadattentioncell0_query_fwd", 
      "attrs": {
        "flatten": "False", 
        "no_bias": "False", 
        "num_hidden": "768"
      }, 
      "inputs": [[346, 0, 0], [347, 0, 0], [348, 0, 0]]
    }, 
    {
      "op": "Reshape", 
      "name": "bertencoder0_transformer5_multiheadattentioncell0_reshape0", 
      "attrs": {"shape": "(0, 0, 12, -1)"}, 
      "inputs": [[349, 0, 0]]
    }, 
    {
      "op": "transpose", 
      "name": "bertencoder0_transformer5_multiheadattentioncell0_transpose0", 
      "attrs": {"axes": "(0, 2, 1, 3)"}, 
      "inputs": [[350, 0, 0]]
    }, 
    {
      "op": "Reshape", 
      "name": "bertencoder0_transformer5_multiheadattentioncell0_reshape1", 
      "attrs": {
        "reverse": "True", 
        "shape": "(-1, 0, 0)"
      }, 
      "inputs": [[351, 0, 0]]
    }, 
    {
      "op": "_contrib_div_sqrt_dim", 
      "name": "bertencoder0_transformer5_multiheadattentioncell0_div_sqrt_dim0", 
      "inputs": [[352, 0, 0]]
    }, 
    {
      "op": "null", 
      "name": "bertencoder0_transformer5_multiheadattentioncell0_key_weight", 
      "attrs": {
        "__dtype__": "0", 
        "__lr_mult__": "1.0", 
        "__shape__": "(768, 768)", 
        "__storage_type__": "0", 
        "__wd_mult__": "1.0"
      }, 
      "inputs": []
    }, 
    {
      "op": "null", 
      "name": "bertencoder0_transformer5_multiheadattentioncell0_key_bias", 
      "attrs": {
        "__dtype__": "0", 
        "__init__": "zeros", 
        "__lr_mult__": "1.0", 
        "__shape__": "(768,)", 
        "__storage_type__": "0", 
        "__wd_mult__": "1.0"
      }, 
      "inputs": []
    }, 
    {
      "op": "FullyConnected", 
      "name": "bertencoder0_transformer5_multiheadattentioncell0_key_fwd", 
      "attrs": {
        "flatten": "False", 
        "no_bias": "False", 
        "num_hidden": "768"
      }, 
      "inputs": [[346, 0, 0], [354, 0, 0], [355, 0, 0]]
    }, 
    {
      "op": "Reshape", 
      "name": "bertencoder0_transformer5_multiheadattentioncell0_reshape2", 
      "attrs": {"shape": "(0, 0, 12, -1)"}, 
      "inputs": [[356, 0, 0]]
    }, 
    {
      "op": "transpose", 
      "name": "bertencoder0_transformer5_multiheadattentioncell0_transpose1", 
      "attrs": {"axes": "(0, 2, 1, 3)"}, 
      "inputs": [[357, 0, 0]]
    }, 
    {
      "op": "Reshape", 
      "name": "bertencoder0_transformer5_multiheadattentioncell0_reshape3", 
      "attrs": {
        "reverse": "True", 
        "shape": "(-1, 0, 0)"
      }, 
      "inputs": [[358, 0, 0]]
    }, 
    {
      "op": "batch_dot", 
      "name": "bertencoder0_transformer5_multiheadattentioncell0_batch_dot0", 
      "attrs": {"transpose_b": "True"}, 
      "inputs": [[353, 0, 0], [359, 0, 0]]
    }, 
    {
      "op": "ones_like", 
      "name": "bertencoder0_transformer5_multiheadattentioncell0_ones_like0", 
      "inputs": [[360, 0, 0]]
    }, 
    {
      "op": "_mul_scalar", 
      "name": "bertencoder0_transformer5_multiheadattentioncell0__mulscalar0", 
      "attrs": {"scalar": "-1e+18"}, 
      "inputs": [[361, 0, 0]]
    }, 
    {
      "op": "where", 
      "name": "bertencoder0_transformer5_multiheadattentioncell0_where0", 
      "inputs": [[43, 0, 0], [360, 0, 0], [362, 0, 0]]
    }, 
    {
      "op": "softmax", 
      "name": "bertencoder0_transformer5_multiheadattentioncell0_softmax0", 
      "attrs": {"axis": "-1"}, 
      "inputs": [[363, 0, 0]]
    }, 
    {
      "op": "elemwise_mul", 
      "name": "bertencoder0_transformer5_multiheadattentioncell0__mul0", 
      "inputs": [[364, 0, 0], [43, 0, 0]]
    }, 
    {
      "op": "Dropout", 
      "name": "bertencoder0_transformer5_dotproductattentioncell0_dropout0_fwd", 
      "attrs": {
        "axes": "()", 
        "cudnn_off": "False", 
        "p": "0.1"
      }, 
      "inputs": [[365, 0, 0]]
    }, 
    {
      "op": "Reshape", 
      "name": "bertencoder0_transformer5_multiheadattentioncell0_reshape5", 
      "attrs": {
        "reverse": "True", 
        "shape": "(-1, 12, 0, 0)"
      }, 
      "inputs": [[366, 0, 0]]
    }, 
    {
      "op": "Reshape", 
      "name": "bertencoder0_transformer5_multiheadattentioncell0_reshape6", 
      "attrs": {
        "reverse": "True", 
        "shape": "(-1, 0, 0)"
      }, 
      "inputs": [[367, 0, 0]]
    }, 
    {
      "op": "null", 
      "name": "bertencoder0_transformer5_multiheadattentioncell0_value_weight", 
      "attrs": {
        "__dtype__": "0", 
        "__lr_mult__": "1.0", 
        "__shape__": "(768, 768)", 
        "__storage_type__": "0", 
        "__wd_mult__": "1.0"
      }, 
      "inputs": []
    }, 
    {
      "op": "null", 
      "name": "bertencoder0_transformer5_multiheadattentioncell0_value_bias", 
      "attrs": {
        "__dtype__": "0", 
        "__init__": "zeros", 
        "__lr_mult__": "1.0", 
        "__shape__": "(768,)", 
        "__storage_type__": "0", 
        "__wd_mult__": "1.0"
      }, 
      "inputs": []
    }, 
    {
      "op": "FullyConnected", 
      "name": "bertencoder0_transformer5_multiheadattentioncell0_value_fwd", 
      "attrs": {
        "flatten": "False", 
        "no_bias": "False", 
        "num_hidden": "768"
      }, 
      "inputs": [[346, 0, 0], [369, 0, 0], [370, 0, 0]]
    }, 
    {
      "op": "Reshape", 
      "name": "bertencoder0_transformer5_multiheadattentioncell0_reshape7", 
      "attrs": {"shape": "(0, 0, 12, -1)"}, 
      "inputs": [[371, 0, 0]]
    }, 
    {
      "op": "transpose", 
      "name": "bertencoder0_transformer5_multiheadattentioncell0_transpose2", 
      "attrs": {"axes": "(0, 2, 1, 3)"}, 
      "inputs": [[372, 0, 0]]
    }, 
    {
      "op": "Reshape", 
      "name": "bertencoder0_transformer5_multiheadattentioncell0_reshape8", 
      "attrs": {
        "reverse": "True", 
        "shape": "(-1, 0, 0)"
      }, 
      "inputs": [[373, 0, 0]]
    }, 
    {
      "op": "batch_dot", 
      "name": "bertencoder0_transformer5_multiheadattentioncell0_batch_dot1", 
      "inputs": [[368, 0, 0], [374, 0, 0]]
    }, 
    {
      "op": "Reshape", 
      "name": "bertencoder0_transformer5_multiheadattentioncell0_reshape9", 
      "attrs": {
        "reverse": "True", 
        "shape": "(-1, 12, 0, 0)"
      }, 
      "inputs": [[375, 0, 0]]
    }, 
    {
      "op": "transpose", 
      "name": "bertencoder0_transformer5_multiheadattentioncell0_transpose3", 
      "attrs": {"axes": "(0, 2, 1, 3)"}, 
      "inputs": [[376, 0, 0]]
    }, 
    {
      "op": "Reshape", 
      "name": "bertencoder0_transformer5_multiheadattentioncell0_reshape10", 
      "attrs": {"shape": "(0, 0, -1)"}, 
      "inputs": [[377, 0, 0]]
    }, 
    {
      "op": "null", 
      "name": "bertencoder0_transformer5_proj_weight", 
      "attrs": {
        "__dtype__": "0", 
        "__lr_mult__": "1.0", 
        "__shape__": "(768, 768)", 
        "__storage_type__": "0", 
        "__wd_mult__": "1.0"
      }, 
      "inputs": []
    }, 
    {
      "op": "null", 
      "name": "bertencoder0_transformer5_proj_bias", 
      "attrs": {
        "__dtype__": "0", 
        "__init__": "zeros", 
        "__lr_mult__": "1.0", 
        "__shape__": "(768,)", 
        "__storage_type__": "0", 
        "__wd_mult__": "1.0"
      }, 
      "inputs": []
    }, 
    {
      "op": "FullyConnected", 
      "name": "bertencoder0_transformer5_proj_fwd", 
      "attrs": {
        "flatten": "False", 
        "no_bias": "False", 
        "num_hidden": "768"
      }, 
      "inputs": [[378, 0, 0], [379, 0, 0], [380, 0, 0]]
    }, 
    {
      "op": "Dropout", 
      "name": "bertencoder0_transformer5_dropout0_fwd", 
      "attrs": {
        "axes": "()", 
        "cudnn_off": "False", 
        "p": "0.1"
      }, 
      "inputs": [[381, 0, 0]]
    }, 
    {
      "op": "elemwise_add", 
      "name": "bertencoder0_transformer5__plus0", 
      "inputs": [[382, 0, 0], [346, 0, 0]]
    }, 
    {
      "op": "null", 
      "name": "bertencoder0_transformer5_bertlayernorm0_gamma", 
      "attrs": {
        "__dtype__": "0", 
        "__init__": "ones", 
        "__lr_mult__": "1.0", 
        "__shape__": "(768,)", 
        "__storage_type__": "0", 
        "__wd_mult__": "1.0"
      }, 
      "inputs": []
    }, 
    {
      "op": "null", 
      "name": "bertencoder0_transformer5_bertlayernorm0_beta", 
      "attrs": {
        "__dtype__": "0", 
        "__init__": "zeros", 
        "__lr_mult__": "1.0", 
        "__shape__": "(768,)", 
        "__storage_type__": "0", 
        "__wd_mult__": "1.0"
      }, 
      "inputs": []
    }, 
    {
      "op": "LayerNorm", 
      "name": "bertencoder0_transformer5_bertlayernorm0_layernorm0", 
      "attrs": {
        "axis": "-1", 
        "eps": "1e-12"
      }, 
      "inputs": [[383, 0, 0], [384, 0, 0], [385, 0, 0]]
    }, 
    {
      "op": "null", 
      "name": "bertencoder0_transformer5_bertpositionwiseffn0_ffn_1_weight", 
      "attrs": {
        "__dtype__": "0", 
        "__lr_mult__": "1.0", 
        "__shape__": "(3072, 768)", 
        "__storage_type__": "0", 
        "__wd_mult__": "1.0"
      }, 
      "inputs": []
    }, 
    {
      "op": "null", 
      "name": "bertencoder0_transformer5_bertpositionwiseffn0_ffn_1_bias", 
      "attrs": {
        "__dtype__": "0", 
        "__init__": "zeros", 
        "__lr_mult__": "1.0", 
        "__shape__": "(3072,)", 
        "__storage_type__": "0", 
        "__wd_mult__": "1.0"
      }, 
      "inputs": []
    }, 
    {
      "op": "FullyConnected", 
      "name": "bertencoder0_transformer5_bertpositionwiseffn0_ffn_1_fwd", 
      "attrs": {
        "flatten": "False", 
        "no_bias": "False", 
        "num_hidden": "3072"
      }, 
      "inputs": [[386, 0, 0], [387, 0, 0], [388, 0, 0]]
    }, 
    {
      "op": "_mul_scalar", 
      "name": "bertencoder0_transformer5_bertpositionwiseffn0_gelu0__mulscalar0", 
      "attrs": {"scalar": "0.5"}, 
      "inputs": [[389, 0, 0]]
    }, 
    {
      "op": "_div_scalar", 
      "name": "bertencoder0_transformer5_bertpositionwiseffn0_gelu0__divscalar0", 
      "attrs": {"scalar": "1.4142135623730951"}, 
      "inputs": [[389, 0, 0]]
    }, 
    {
      "op": "erf", 
      "name": "bertencoder0_transformer5_bertpositionwiseffn0_gelu0_erf0", 
      "inputs": [[391, 0, 0]]
    }, 
    {
      "op": "_plus_scalar", 
      "name": "bertencoder0_transformer5_bertpositionwiseffn0_gelu0__plusscalar0", 
      "attrs": {"scalar": "1.0"}, 
      "inputs": [[392, 0, 0]]
    }, 
    {
      "op": "elemwise_mul", 
      "name": "bertencoder0_transformer5_bertpositionwiseffn0_gelu0__mul0", 
      "inputs": [[390, 0, 0], [393, 0, 0]]
    }, 
    {
      "op": "null", 
      "name": "bertencoder0_transformer5_bertpositionwiseffn0_ffn_2_weight", 
      "attrs": {
        "__dtype__": "0", 
        "__lr_mult__": "1.0", 
        "__shape__": "(768, 3072)", 
        "__storage_type__": "0", 
        "__wd_mult__": "1.0"
      }, 
      "inputs": []
    }, 
    {
      "op": "null", 
      "name": "bertencoder0_transformer5_bertpositionwiseffn0_ffn_2_bias", 
      "attrs": {
        "__dtype__": "0", 
        "__init__": "zeros", 
        "__lr_mult__": "1.0", 
        "__shape__": "(768,)", 
        "__storage_type__": "0", 
        "__wd_mult__": "1.0"
      }, 
      "inputs": []
    }, 
    {
      "op": "FullyConnected", 
      "name": "bertencoder0_transformer5_bertpositionwiseffn0_ffn_2_fwd", 
      "attrs": {
        "flatten": "False", 
        "no_bias": "False", 
        "num_hidden": "768"
      }, 
      "inputs": [[394, 0, 0], [395, 0, 0], [396, 0, 0]]
    }, 
    {
      "op": "Dropout", 
      "name": "bertencoder0_transformer5_bertpositionwiseffn0_dropout0_fwd", 
      "attrs": {
        "axes": "()", 
        "cudnn_off": "False", 
        "p": "0.1"
      }, 
      "inputs": [[397, 0, 0]]
    }, 
    {
      "op": "elemwise_add", 
      "name": "bertencoder0_transformer5_bertpositionwiseffn0__plus0", 
      "inputs": [[398, 0, 0], [386, 0, 0]]
    }, 
    {
      "op": "null", 
      "name": "bertencoder0_transformer5_bertpositionwiseffn0_bertlayernorm0_gamma", 
      "attrs": {
        "__dtype__": "0", 
        "__init__": "ones", 
        "__lr_mult__": "1.0", 
        "__shape__": "(768,)", 
        "__storage_type__": "0", 
        "__wd_mult__": "1.0"
      }, 
      "inputs": []
    }, 
    {
      "op": "null", 
      "name": "bertencoder0_transformer5_bertpositionwiseffn0_bertlayernorm0_beta", 
      "attrs": {
        "__dtype__": "0", 
        "__init__": "zeros", 
        "__lr_mult__": "1.0", 
        "__shape__": "(768,)", 
        "__storage_type__": "0", 
        "__wd_mult__": "1.0"
      }, 
      "inputs": []
    }, 
    {
      "op": "LayerNorm", 
      "name": "bertencoder0_transformer5_bertpositionwiseffn0_bertlayernorm0_layernorm0", 
      "attrs": {
        "axis": "-1", 
        "eps": "1e-12"
      }, 
      "inputs": [[399, 0, 0], [400, 0, 0], [401, 0, 0]]
    }, 
    {
      "op": "null", 
      "name": "bertencoder0_transformer6_multiheadattentioncell0_query_weight", 
      "attrs": {
        "__dtype__": "0", 
        "__lr_mult__": "1.0", 
        "__shape__": "(768, 768)", 
        "__storage_type__": "0", 
        "__wd_mult__": "1.0"
      }, 
      "inputs": []
    }, 
    {
      "op": "null", 
      "name": "bertencoder0_transformer6_multiheadattentioncell0_query_bias", 
      "attrs": {
        "__dtype__": "0", 
        "__init__": "zeros", 
        "__lr_mult__": "1.0", 
        "__shape__": "(768,)", 
        "__storage_type__": "0", 
        "__wd_mult__": "1.0"
      }, 
      "inputs": []
    }, 
    {
      "op": "FullyConnected", 
      "name": "bertencoder0_transformer6_multiheadattentioncell0_query_fwd", 
      "attrs": {
        "flatten": "False", 
        "no_bias": "False", 
        "num_hidden": "768"
      }, 
      "inputs": [[402, 0, 0], [403, 0, 0], [404, 0, 0]]
    }, 
    {
      "op": "Reshape", 
      "name": "bertencoder0_transformer6_multiheadattentioncell0_reshape0", 
      "attrs": {"shape": "(0, 0, 12, -1)"}, 
      "inputs": [[405, 0, 0]]
    }, 
    {
      "op": "transpose", 
      "name": "bertencoder0_transformer6_multiheadattentioncell0_transpose0", 
      "attrs": {"axes": "(0, 2, 1, 3)"}, 
      "inputs": [[406, 0, 0]]
    }, 
    {
      "op": "Reshape", 
      "name": "bertencoder0_transformer6_multiheadattentioncell0_reshape1", 
      "attrs": {
        "reverse": "True", 
        "shape": "(-1, 0, 0)"
      }, 
      "inputs": [[407, 0, 0]]
    }, 
    {
      "op": "_contrib_div_sqrt_dim", 
      "name": "bertencoder0_transformer6_multiheadattentioncell0_div_sqrt_dim0", 
      "inputs": [[408, 0, 0]]
    }, 
    {
      "op": "null", 
      "name": "bertencoder0_transformer6_multiheadattentioncell0_key_weight", 
      "attrs": {
        "__dtype__": "0", 
        "__lr_mult__": "1.0", 
        "__shape__": "(768, 768)", 
        "__storage_type__": "0", 
        "__wd_mult__": "1.0"
      }, 
      "inputs": []
    }, 
    {
      "op": "null", 
      "name": "bertencoder0_transformer6_multiheadattentioncell0_key_bias", 
      "attrs": {
        "__dtype__": "0", 
        "__init__": "zeros", 
        "__lr_mult__": "1.0", 
        "__shape__": "(768,)", 
        "__storage_type__": "0", 
        "__wd_mult__": "1.0"
      }, 
      "inputs": []
    }, 
    {
      "op": "FullyConnected", 
      "name": "bertencoder0_transformer6_multiheadattentioncell0_key_fwd", 
      "attrs": {
        "flatten": "False", 
        "no_bias": "False", 
        "num_hidden": "768"
      }, 
      "inputs": [[402, 0, 0], [410, 0, 0], [411, 0, 0]]
    }, 
    {
      "op": "Reshape", 
      "name": "bertencoder0_transformer6_multiheadattentioncell0_reshape2", 
      "attrs": {"shape": "(0, 0, 12, -1)"}, 
      "inputs": [[412, 0, 0]]
    }, 
    {
      "op": "transpose", 
      "name": "bertencoder0_transformer6_multiheadattentioncell0_transpose1", 
      "attrs": {"axes": "(0, 2, 1, 3)"}, 
      "inputs": [[413, 0, 0]]
    }, 
    {
      "op": "Reshape", 
      "name": "bertencoder0_transformer6_multiheadattentioncell0_reshape3", 
      "attrs": {
        "reverse": "True", 
        "shape": "(-1, 0, 0)"
      }, 
      "inputs": [[414, 0, 0]]
    }, 
    {
      "op": "batch_dot", 
      "name": "bertencoder0_transformer6_multiheadattentioncell0_batch_dot0", 
      "attrs": {"transpose_b": "True"}, 
      "inputs": [[409, 0, 0], [415, 0, 0]]
    }, 
    {
      "op": "ones_like", 
      "name": "bertencoder0_transformer6_multiheadattentioncell0_ones_like0", 
      "inputs": [[416, 0, 0]]
    }, 
    {
      "op": "_mul_scalar", 
      "name": "bertencoder0_transformer6_multiheadattentioncell0__mulscalar0", 
      "attrs": {"scalar": "-1e+18"}, 
      "inputs": [[417, 0, 0]]
    }, 
    {
      "op": "where", 
      "name": "bertencoder0_transformer6_multiheadattentioncell0_where0", 
      "inputs": [[40, 0, 0], [416, 0, 0], [418, 0, 0]]
    }, 
    {
      "op": "softmax", 
      "name": "bertencoder0_transformer6_multiheadattentioncell0_softmax0", 
      "attrs": {"axis": "-1"}, 
      "inputs": [[419, 0, 0]]
    }, 
    {
      "op": "elemwise_mul", 
      "name": "bertencoder0_transformer6_multiheadattentioncell0__mul0", 
      "inputs": [[420, 0, 0], [40, 0, 0]]
    }, 
    {
      "op": "Dropout", 
      "name": "bertencoder0_transformer6_dotproductattentioncell0_dropout0_fwd", 
      "attrs": {
        "axes": "()", 
        "cudnn_off": "False", 
        "p": "0.1"
      }, 
      "inputs": [[421, 0, 0]]
    }, 
    {
      "op": "Reshape", 
      "name": "bertencoder0_transformer6_multiheadattentioncell0_reshape5", 
      "attrs": {
        "reverse": "True", 
        "shape": "(-1, 12, 0, 0)"
      }, 
      "inputs": [[422, 0, 0]]
    }, 
    {
      "op": "Reshape", 
      "name": "bertencoder0_transformer6_multiheadattentioncell0_reshape6", 
      "attrs": {
        "reverse": "True", 
        "shape": "(-1, 0, 0)"
      }, 
      "inputs": [[423, 0, 0]]
    }, 
    {
      "op": "null", 
      "name": "bertencoder0_transformer6_multiheadattentioncell0_value_weight", 
      "attrs": {
        "__dtype__": "0", 
        "__lr_mult__": "1.0", 
        "__shape__": "(768, 768)", 
        "__storage_type__": "0", 
        "__wd_mult__": "1.0"
      }, 
      "inputs": []
    }, 
    {
      "op": "null", 
      "name": "bertencoder0_transformer6_multiheadattentioncell0_value_bias", 
      "attrs": {
        "__dtype__": "0", 
        "__init__": "zeros", 
        "__lr_mult__": "1.0", 
        "__shape__": "(768,)", 
        "__storage_type__": "0", 
        "__wd_mult__": "1.0"
      }, 
      "inputs": []
    }, 
    {
      "op": "FullyConnected", 
      "name": "bertencoder0_transformer6_multiheadattentioncell0_value_fwd", 
      "attrs": {
        "flatten": "False", 
        "no_bias": "False", 
        "num_hidden": "768"
      }, 
      "inputs": [[402, 0, 0], [425, 0, 0], [426, 0, 0]]
    }, 
    {
      "op": "Reshape", 
      "name": "bertencoder0_transformer6_multiheadattentioncell0_reshape7", 
      "attrs": {"shape": "(0, 0, 12, -1)"}, 
      "inputs": [[427, 0, 0]]
    }, 
    {
      "op": "transpose", 
      "name": "bertencoder0_transformer6_multiheadattentioncell0_transpose2", 
      "attrs": {"axes": "(0, 2, 1, 3)"}, 
      "inputs": [[428, 0, 0]]
    }, 
    {
      "op": "Reshape", 
      "name": "bertencoder0_transformer6_multiheadattentioncell0_reshape8", 
      "attrs": {
        "reverse": "True", 
        "shape": "(-1, 0, 0)"
      }, 
      "inputs": [[429, 0, 0]]
    }, 
    {
      "op": "batch_dot", 
      "name": "bertencoder0_transformer6_multiheadattentioncell0_batch_dot1", 
      "inputs": [[424, 0, 0], [430, 0, 0]]
    }, 
    {
      "op": "Reshape", 
      "name": "bertencoder0_transformer6_multiheadattentioncell0_reshape9", 
      "attrs": {
        "reverse": "True", 
        "shape": "(-1, 12, 0, 0)"
      }, 
      "inputs": [[431, 0, 0]]
    }, 
    {
      "op": "transpose", 
      "name": "bertencoder0_transformer6_multiheadattentioncell0_transpose3", 
      "attrs": {"axes": "(0, 2, 1, 3)"}, 
      "inputs": [[432, 0, 0]]
    }, 
    {
      "op": "Reshape", 
      "name": "bertencoder0_transformer6_multiheadattentioncell0_reshape10", 
      "attrs": {"shape": "(0, 0, -1)"}, 
      "inputs": [[433, 0, 0]]
    }, 
    {
      "op": "null", 
      "name": "bertencoder0_transformer6_proj_weight", 
      "attrs": {
        "__dtype__": "0", 
        "__lr_mult__": "1.0", 
        "__shape__": "(768, 768)", 
        "__storage_type__": "0", 
        "__wd_mult__": "1.0"
      }, 
      "inputs": []
    }, 
    {
      "op": "null", 
      "name": "bertencoder0_transformer6_proj_bias", 
      "attrs": {
        "__dtype__": "0", 
        "__init__": "zeros", 
        "__lr_mult__": "1.0", 
        "__shape__": "(768,)", 
        "__storage_type__": "0", 
        "__wd_mult__": "1.0"
      }, 
      "inputs": []
    }, 
    {
      "op": "FullyConnected", 
      "name": "bertencoder0_transformer6_proj_fwd", 
      "attrs": {
        "flatten": "False", 
        "no_bias": "False", 
        "num_hidden": "768"
      }, 
      "inputs": [[434, 0, 0], [435, 0, 0], [436, 0, 0]]
    }, 
    {
      "op": "Dropout", 
      "name": "bertencoder0_transformer6_dropout0_fwd", 
      "attrs": {
        "axes": "()", 
        "cudnn_off": "False", 
        "p": "0.1"
      }, 
      "inputs": [[437, 0, 0]]
    }, 
    {
      "op": "elemwise_add", 
      "name": "bertencoder0_transformer6__plus0", 
      "inputs": [[438, 0, 0], [402, 0, 0]]
    }, 
    {
      "op": "null", 
      "name": "bertencoder0_transformer6_bertlayernorm0_gamma", 
      "attrs": {
        "__dtype__": "0", 
        "__init__": "ones", 
        "__lr_mult__": "1.0", 
        "__shape__": "(768,)", 
        "__storage_type__": "0", 
        "__wd_mult__": "1.0"
      }, 
      "inputs": []
    }, 
    {
      "op": "null", 
      "name": "bertencoder0_transformer6_bertlayernorm0_beta", 
      "attrs": {
        "__dtype__": "0", 
        "__init__": "zeros", 
        "__lr_mult__": "1.0", 
        "__shape__": "(768,)", 
        "__storage_type__": "0", 
        "__wd_mult__": "1.0"
      }, 
      "inputs": []
    }, 
    {
      "op": "LayerNorm", 
      "name": "bertencoder0_transformer6_bertlayernorm0_layernorm0", 
      "attrs": {
        "axis": "-1", 
        "eps": "1e-12"
      }, 
      "inputs": [[439, 0, 0], [440, 0, 0], [441, 0, 0]]
    }, 
    {
      "op": "null", 
      "name": "bertencoder0_transformer6_bertpositionwiseffn0_ffn_1_weight", 
      "attrs": {
        "__dtype__": "0", 
        "__lr_mult__": "1.0", 
        "__shape__": "(3072, 768)", 
        "__storage_type__": "0", 
        "__wd_mult__": "1.0"
      }, 
      "inputs": []
    }, 
    {
      "op": "null", 
      "name": "bertencoder0_transformer6_bertpositionwiseffn0_ffn_1_bias", 
      "attrs": {
        "__dtype__": "0", 
        "__init__": "zeros", 
        "__lr_mult__": "1.0", 
        "__shape__": "(3072,)", 
        "__storage_type__": "0", 
        "__wd_mult__": "1.0"
      }, 
      "inputs": []
    }, 
    {
      "op": "FullyConnected", 
      "name": "bertencoder0_transformer6_bertpositionwiseffn0_ffn_1_fwd", 
      "attrs": {
        "flatten": "False", 
        "no_bias": "False", 
        "num_hidden": "3072"
      }, 
      "inputs": [[442, 0, 0], [443, 0, 0], [444, 0, 0]]
    }, 
    {
      "op": "_mul_scalar", 
      "name": "bertencoder0_transformer6_bertpositionwiseffn0_gelu0__mulscalar0", 
      "attrs": {"scalar": "0.5"}, 
      "inputs": [[445, 0, 0]]
    }, 
    {
      "op": "_div_scalar", 
      "name": "bertencoder0_transformer6_bertpositionwiseffn0_gelu0__divscalar0", 
      "attrs": {"scalar": "1.4142135623730951"}, 
      "inputs": [[445, 0, 0]]
    }, 
    {
      "op": "erf", 
      "name": "bertencoder0_transformer6_bertpositionwiseffn0_gelu0_erf0", 
      "inputs": [[447, 0, 0]]
    }, 
    {
      "op": "_plus_scalar", 
      "name": "bertencoder0_transformer6_bertpositionwiseffn0_gelu0__plusscalar0", 
      "attrs": {"scalar": "1.0"}, 
      "inputs": [[448, 0, 0]]
    }, 
    {
      "op": "elemwise_mul", 
      "name": "bertencoder0_transformer6_bertpositionwiseffn0_gelu0__mul0", 
      "inputs": [[446, 0, 0], [449, 0, 0]]
    }, 
    {
      "op": "null", 
      "name": "bertencoder0_transformer6_bertpositionwiseffn0_ffn_2_weight", 
      "attrs": {
        "__dtype__": "0", 
        "__lr_mult__": "1.0", 
        "__shape__": "(768, 3072)", 
        "__storage_type__": "0", 
        "__wd_mult__": "1.0"
      }, 
      "inputs": []
    }, 
    {
      "op": "null", 
      "name": "bertencoder0_transformer6_bertpositionwiseffn0_ffn_2_bias", 
      "attrs": {
        "__dtype__": "0", 
        "__init__": "zeros", 
        "__lr_mult__": "1.0", 
        "__shape__": "(768,)", 
        "__storage_type__": "0", 
        "__wd_mult__": "1.0"
      }, 
      "inputs": []
    }, 
    {
      "op": "FullyConnected", 
      "name": "bertencoder0_transformer6_bertpositionwiseffn0_ffn_2_fwd", 
      "attrs": {
        "flatten": "False", 
        "no_bias": "False", 
        "num_hidden": "768"
      }, 
      "inputs": [[450, 0, 0], [451, 0, 0], [452, 0, 0]]
    }, 
    {
      "op": "Dropout", 
      "name": "bertencoder0_transformer6_bertpositionwiseffn0_dropout0_fwd", 
      "attrs": {
        "axes": "()", 
        "cudnn_off": "False", 
        "p": "0.1"
      }, 
      "inputs": [[453, 0, 0]]
    }, 
    {
      "op": "elemwise_add", 
      "name": "bertencoder0_transformer6_bertpositionwiseffn0__plus0", 
      "inputs": [[454, 0, 0], [442, 0, 0]]
    }, 
    {
      "op": "null", 
      "name": "bertencoder0_transformer6_bertpositionwiseffn0_bertlayernorm0_gamma", 
      "attrs": {
        "__dtype__": "0", 
        "__init__": "ones", 
        "__lr_mult__": "1.0", 
        "__shape__": "(768,)", 
        "__storage_type__": "0", 
        "__wd_mult__": "1.0"
      }, 
      "inputs": []
    }, 
    {
      "op": "null", 
      "name": "bertencoder0_transformer6_bertpositionwiseffn0_bertlayernorm0_beta", 
      "attrs": {
        "__dtype__": "0", 
        "__init__": "zeros", 
        "__lr_mult__": "1.0", 
        "__shape__": "(768,)", 
        "__storage_type__": "0", 
        "__wd_mult__": "1.0"
      }, 
      "inputs": []
    }, 
    {
      "op": "LayerNorm", 
      "name": "bertencoder0_transformer6_bertpositionwiseffn0_bertlayernorm0_layernorm0", 
      "attrs": {
        "axis": "-1", 
        "eps": "1e-12"
      }, 
      "inputs": [[455, 0, 0], [456, 0, 0], [457, 0, 0]]
    }, 
    {
      "op": "null", 
      "name": "bertencoder0_transformer7_multiheadattentioncell0_query_weight", 
      "attrs": {
        "__dtype__": "0", 
        "__lr_mult__": "1.0", 
        "__shape__": "(768, 768)", 
        "__storage_type__": "0", 
        "__wd_mult__": "1.0"
      }, 
      "inputs": []
    }, 
    {
      "op": "null", 
      "name": "bertencoder0_transformer7_multiheadattentioncell0_query_bias", 
      "attrs": {
        "__dtype__": "0", 
        "__init__": "zeros", 
        "__lr_mult__": "1.0", 
        "__shape__": "(768,)", 
        "__storage_type__": "0", 
        "__wd_mult__": "1.0"
      }, 
      "inputs": []
    }, 
    {
      "op": "FullyConnected", 
      "name": "bertencoder0_transformer7_multiheadattentioncell0_query_fwd", 
      "attrs": {
        "flatten": "False", 
        "no_bias": "False", 
        "num_hidden": "768"
      }, 
      "inputs": [[458, 0, 0], [459, 0, 0], [460, 0, 0]]
    }, 
    {
      "op": "Reshape", 
      "name": "bertencoder0_transformer7_multiheadattentioncell0_reshape0", 
      "attrs": {"shape": "(0, 0, 12, -1)"}, 
      "inputs": [[461, 0, 0]]
    }, 
    {
      "op": "transpose", 
      "name": "bertencoder0_transformer7_multiheadattentioncell0_transpose0", 
      "attrs": {"axes": "(0, 2, 1, 3)"}, 
      "inputs": [[462, 0, 0]]
    }, 
    {
      "op": "Reshape", 
      "name": "bertencoder0_transformer7_multiheadattentioncell0_reshape1", 
      "attrs": {
        "reverse": "True", 
        "shape": "(-1, 0, 0)"
      }, 
      "inputs": [[463, 0, 0]]
    }, 
    {
      "op": "_contrib_div_sqrt_dim", 
      "name": "bertencoder0_transformer7_multiheadattentioncell0_div_sqrt_dim0", 
      "inputs": [[464, 0, 0]]
    }, 
    {
      "op": "null", 
      "name": "bertencoder0_transformer7_multiheadattentioncell0_key_weight", 
      "attrs": {
        "__dtype__": "0", 
        "__lr_mult__": "1.0", 
        "__shape__": "(768, 768)", 
        "__storage_type__": "0", 
        "__wd_mult__": "1.0"
      }, 
      "inputs": []
    }, 
    {
      "op": "null", 
      "name": "bertencoder0_transformer7_multiheadattentioncell0_key_bias", 
      "attrs": {
        "__dtype__": "0", 
        "__init__": "zeros", 
        "__lr_mult__": "1.0", 
        "__shape__": "(768,)", 
        "__storage_type__": "0", 
        "__wd_mult__": "1.0"
      }, 
      "inputs": []
    }, 
    {
      "op": "FullyConnected", 
      "name": "bertencoder0_transformer7_multiheadattentioncell0_key_fwd", 
      "attrs": {
        "flatten": "False", 
        "no_bias": "False", 
        "num_hidden": "768"
      }, 
      "inputs": [[458, 0, 0], [466, 0, 0], [467, 0, 0]]
    }, 
    {
      "op": "Reshape", 
      "name": "bertencoder0_transformer7_multiheadattentioncell0_reshape2", 
      "attrs": {"shape": "(0, 0, 12, -1)"}, 
      "inputs": [[468, 0, 0]]
    }, 
    {
      "op": "transpose", 
      "name": "bertencoder0_transformer7_multiheadattentioncell0_transpose1", 
      "attrs": {"axes": "(0, 2, 1, 3)"}, 
      "inputs": [[469, 0, 0]]
    }, 
    {
      "op": "Reshape", 
      "name": "bertencoder0_transformer7_multiheadattentioncell0_reshape3", 
      "attrs": {
        "reverse": "True", 
        "shape": "(-1, 0, 0)"
      }, 
      "inputs": [[470, 0, 0]]
    }, 
    {
      "op": "batch_dot", 
      "name": "bertencoder0_transformer7_multiheadattentioncell0_batch_dot0", 
      "attrs": {"transpose_b": "True"}, 
      "inputs": [[465, 0, 0], [471, 0, 0]]
    }, 
    {
      "op": "ones_like", 
      "name": "bertencoder0_transformer7_multiheadattentioncell0_ones_like0", 
      "inputs": [[472, 0, 0]]
    }, 
    {
      "op": "_mul_scalar", 
      "name": "bertencoder0_transformer7_multiheadattentioncell0__mulscalar0", 
      "attrs": {"scalar": "-1e+18"}, 
      "inputs": [[473, 0, 0]]
    }, 
    {
      "op": "where", 
      "name": "bertencoder0_transformer7_multiheadattentioncell0_where0", 
      "inputs": [[37, 0, 0], [472, 0, 0], [474, 0, 0]]
    }, 
    {
      "op": "softmax", 
      "name": "bertencoder0_transformer7_multiheadattentioncell0_softmax0", 
      "attrs": {"axis": "-1"}, 
      "inputs": [[475, 0, 0]]
    }, 
    {
      "op": "elemwise_mul", 
      "name": "bertencoder0_transformer7_multiheadattentioncell0__mul0", 
      "inputs": [[476, 0, 0], [37, 0, 0]]
    }, 
    {
      "op": "Dropout", 
      "name": "bertencoder0_transformer7_dotproductattentioncell0_dropout0_fwd", 
      "attrs": {
        "axes": "()", 
        "cudnn_off": "False", 
        "p": "0.1"
      }, 
      "inputs": [[477, 0, 0]]
    }, 
    {
      "op": "Reshape", 
      "name": "bertencoder0_transformer7_multiheadattentioncell0_reshape5", 
      "attrs": {
        "reverse": "True", 
        "shape": "(-1, 12, 0, 0)"
      }, 
      "inputs": [[478, 0, 0]]
    }, 
    {
      "op": "Reshape", 
      "name": "bertencoder0_transformer7_multiheadattentioncell0_reshape6", 
      "attrs": {
        "reverse": "True", 
        "shape": "(-1, 0, 0)"
      }, 
      "inputs": [[479, 0, 0]]
    }, 
    {
      "op": "null", 
      "name": "bertencoder0_transformer7_multiheadattentioncell0_value_weight", 
      "attrs": {
        "__dtype__": "0", 
        "__lr_mult__": "1.0", 
        "__shape__": "(768, 768)", 
        "__storage_type__": "0", 
        "__wd_mult__": "1.0"
      }, 
      "inputs": []
    }, 
    {
      "op": "null", 
      "name": "bertencoder0_transformer7_multiheadattentioncell0_value_bias", 
      "attrs": {
        "__dtype__": "0", 
        "__init__": "zeros", 
        "__lr_mult__": "1.0", 
        "__shape__": "(768,)", 
        "__storage_type__": "0", 
        "__wd_mult__": "1.0"
      }, 
      "inputs": []
    }, 
    {
      "op": "FullyConnected", 
      "name": "bertencoder0_transformer7_multiheadattentioncell0_value_fwd", 
      "attrs": {
        "flatten": "False", 
        "no_bias": "False", 
        "num_hidden": "768"
      }, 
      "inputs": [[458, 0, 0], [481, 0, 0], [482, 0, 0]]
    }, 
    {
      "op": "Reshape", 
      "name": "bertencoder0_transformer7_multiheadattentioncell0_reshape7", 
      "attrs": {"shape": "(0, 0, 12, -1)"}, 
      "inputs": [[483, 0, 0]]
    }, 
    {
      "op": "transpose", 
      "name": "bertencoder0_transformer7_multiheadattentioncell0_transpose2", 
      "attrs": {"axes": "(0, 2, 1, 3)"}, 
      "inputs": [[484, 0, 0]]
    }, 
    {
      "op": "Reshape", 
      "name": "bertencoder0_transformer7_multiheadattentioncell0_reshape8", 
      "attrs": {
        "reverse": "True", 
        "shape": "(-1, 0, 0)"
      }, 
      "inputs": [[485, 0, 0]]
    }, 
    {
      "op": "batch_dot", 
      "name": "bertencoder0_transformer7_multiheadattentioncell0_batch_dot1", 
      "inputs": [[480, 0, 0], [486, 0, 0]]
    }, 
    {
      "op": "Reshape", 
      "name": "bertencoder0_transformer7_multiheadattentioncell0_reshape9", 
      "attrs": {
        "reverse": "True", 
        "shape": "(-1, 12, 0, 0)"
      }, 
      "inputs": [[487, 0, 0]]
    }, 
    {
      "op": "transpose", 
      "name": "bertencoder0_transformer7_multiheadattentioncell0_transpose3", 
      "attrs": {"axes": "(0, 2, 1, 3)"}, 
      "inputs": [[488, 0, 0]]
    }, 
    {
      "op": "Reshape", 
      "name": "bertencoder0_transformer7_multiheadattentioncell0_reshape10", 
      "attrs": {"shape": "(0, 0, -1)"}, 
      "inputs": [[489, 0, 0]]
    }, 
    {
      "op": "null", 
      "name": "bertencoder0_transformer7_proj_weight", 
      "attrs": {
        "__dtype__": "0", 
        "__lr_mult__": "1.0", 
        "__shape__": "(768, 768)", 
        "__storage_type__": "0", 
        "__wd_mult__": "1.0"
      }, 
      "inputs": []
    }, 
    {
      "op": "null", 
      "name": "bertencoder0_transformer7_proj_bias", 
      "attrs": {
        "__dtype__": "0", 
        "__init__": "zeros", 
        "__lr_mult__": "1.0", 
        "__shape__": "(768,)", 
        "__storage_type__": "0", 
        "__wd_mult__": "1.0"
      }, 
      "inputs": []
    }, 
    {
      "op": "FullyConnected", 
      "name": "bertencoder0_transformer7_proj_fwd", 
      "attrs": {
        "flatten": "False", 
        "no_bias": "False", 
        "num_hidden": "768"
      }, 
      "inputs": [[490, 0, 0], [491, 0, 0], [492, 0, 0]]
    }, 
    {
      "op": "Dropout", 
      "name": "bertencoder0_transformer7_dropout0_fwd", 
      "attrs": {
        "axes": "()", 
        "cudnn_off": "False", 
        "p": "0.1"
      }, 
      "inputs": [[493, 0, 0]]
    }, 
    {
      "op": "elemwise_add", 
      "name": "bertencoder0_transformer7__plus0", 
      "inputs": [[494, 0, 0], [458, 0, 0]]
    }, 
    {
      "op": "null", 
      "name": "bertencoder0_transformer7_bertlayernorm0_gamma", 
      "attrs": {
        "__dtype__": "0", 
        "__init__": "ones", 
        "__lr_mult__": "1.0", 
        "__shape__": "(768,)", 
        "__storage_type__": "0", 
        "__wd_mult__": "1.0"
      }, 
      "inputs": []
    }, 
    {
      "op": "null", 
      "name": "bertencoder0_transformer7_bertlayernorm0_beta", 
      "attrs": {
        "__dtype__": "0", 
        "__init__": "zeros", 
        "__lr_mult__": "1.0", 
        "__shape__": "(768,)", 
        "__storage_type__": "0", 
        "__wd_mult__": "1.0"
      }, 
      "inputs": []
    }, 
    {
      "op": "LayerNorm", 
      "name": "bertencoder0_transformer7_bertlayernorm0_layernorm0", 
      "attrs": {
        "axis": "-1", 
        "eps": "1e-12"
      }, 
      "inputs": [[495, 0, 0], [496, 0, 0], [497, 0, 0]]
    }, 
    {
      "op": "null", 
      "name": "bertencoder0_transformer7_bertpositionwiseffn0_ffn_1_weight", 
      "attrs": {
        "__dtype__": "0", 
        "__lr_mult__": "1.0", 
        "__shape__": "(3072, 768)", 
        "__storage_type__": "0", 
        "__wd_mult__": "1.0"
      }, 
      "inputs": []
    }, 
    {
      "op": "null", 
      "name": "bertencoder0_transformer7_bertpositionwiseffn0_ffn_1_bias", 
      "attrs": {
        "__dtype__": "0", 
        "__init__": "zeros", 
        "__lr_mult__": "1.0", 
        "__shape__": "(3072,)", 
        "__storage_type__": "0", 
        "__wd_mult__": "1.0"
      }, 
      "inputs": []
    }, 
    {
      "op": "FullyConnected", 
      "name": "bertencoder0_transformer7_bertpositionwiseffn0_ffn_1_fwd", 
      "attrs": {
        "flatten": "False", 
        "no_bias": "False", 
        "num_hidden": "3072"
      }, 
      "inputs": [[498, 0, 0], [499, 0, 0], [500, 0, 0]]
    }, 
    {
      "op": "_mul_scalar", 
      "name": "bertencoder0_transformer7_bertpositionwiseffn0_gelu0__mulscalar0", 
      "attrs": {"scalar": "0.5"}, 
      "inputs": [[501, 0, 0]]
    }, 
    {
      "op": "_div_scalar", 
      "name": "bertencoder0_transformer7_bertpositionwiseffn0_gelu0__divscalar0", 
      "attrs": {"scalar": "1.4142135623730951"}, 
      "inputs": [[501, 0, 0]]
    }, 
    {
      "op": "erf", 
      "name": "bertencoder0_transformer7_bertpositionwiseffn0_gelu0_erf0", 
      "inputs": [[503, 0, 0]]
    }, 
    {
      "op": "_plus_scalar", 
      "name": "bertencoder0_transformer7_bertpositionwiseffn0_gelu0__plusscalar0", 
      "attrs": {"scalar": "1.0"}, 
      "inputs": [[504, 0, 0]]
    }, 
    {
      "op": "elemwise_mul", 
      "name": "bertencoder0_transformer7_bertpositionwiseffn0_gelu0__mul0", 
      "inputs": [[502, 0, 0], [505, 0, 0]]
    }, 
    {
      "op": "null", 
      "name": "bertencoder0_transformer7_bertpositionwiseffn0_ffn_2_weight", 
      "attrs": {
        "__dtype__": "0", 
        "__lr_mult__": "1.0", 
        "__shape__": "(768, 3072)", 
        "__storage_type__": "0", 
        "__wd_mult__": "1.0"
      }, 
      "inputs": []
    }, 
    {
      "op": "null", 
      "name": "bertencoder0_transformer7_bertpositionwiseffn0_ffn_2_bias", 
      "attrs": {
        "__dtype__": "0", 
        "__init__": "zeros", 
        "__lr_mult__": "1.0", 
        "__shape__": "(768,)", 
        "__storage_type__": "0", 
        "__wd_mult__": "1.0"
      }, 
      "inputs": []
    }, 
    {
      "op": "FullyConnected", 
      "name": "bertencoder0_transformer7_bertpositionwiseffn0_ffn_2_fwd", 
      "attrs": {
        "flatten": "False", 
        "no_bias": "False", 
        "num_hidden": "768"
      }, 
      "inputs": [[506, 0, 0], [507, 0, 0], [508, 0, 0]]
    }, 
    {
      "op": "Dropout", 
      "name": "bertencoder0_transformer7_bertpositionwiseffn0_dropout0_fwd", 
      "attrs": {
        "axes": "()", 
        "cudnn_off": "False", 
        "p": "0.1"
      }, 
      "inputs": [[509, 0, 0]]
    }, 
    {
      "op": "elemwise_add", 
      "name": "bertencoder0_transformer7_bertpositionwiseffn0__plus0", 
      "inputs": [[510, 0, 0], [498, 0, 0]]
    }, 
    {
      "op": "null", 
      "name": "bertencoder0_transformer7_bertpositionwiseffn0_bertlayernorm0_gamma", 
      "attrs": {
        "__dtype__": "0", 
        "__init__": "ones", 
        "__lr_mult__": "1.0", 
        "__shape__": "(768,)", 
        "__storage_type__": "0", 
        "__wd_mult__": "1.0"
      }, 
      "inputs": []
    }, 
    {
      "op": "null", 
      "name": "bertencoder0_transformer7_bertpositionwiseffn0_bertlayernorm0_beta", 
      "attrs": {
        "__dtype__": "0", 
        "__init__": "zeros", 
        "__lr_mult__": "1.0", 
        "__shape__": "(768,)", 
        "__storage_type__": "0", 
        "__wd_mult__": "1.0"
      }, 
      "inputs": []
    }, 
    {
      "op": "LayerNorm", 
      "name": "bertencoder0_transformer7_bertpositionwiseffn0_bertlayernorm0_layernorm0", 
      "attrs": {
        "axis": "-1", 
        "eps": "1e-12"
      }, 
      "inputs": [[511, 0, 0], [512, 0, 0], [513, 0, 0]]
    }, 
    {
      "op": "null", 
      "name": "bertencoder0_transformer8_multiheadattentioncell0_query_weight", 
      "attrs": {
        "__dtype__": "0", 
        "__lr_mult__": "1.0", 
        "__shape__": "(768, 768)", 
        "__storage_type__": "0", 
        "__wd_mult__": "1.0"
      }, 
      "inputs": []
    }, 
    {
      "op": "null", 
      "name": "bertencoder0_transformer8_multiheadattentioncell0_query_bias", 
      "attrs": {
        "__dtype__": "0", 
        "__init__": "zeros", 
        "__lr_mult__": "1.0", 
        "__shape__": "(768,)", 
        "__storage_type__": "0", 
        "__wd_mult__": "1.0"
      }, 
      "inputs": []
    }, 
    {
      "op": "FullyConnected", 
      "name": "bertencoder0_transformer8_multiheadattentioncell0_query_fwd", 
      "attrs": {
        "flatten": "False", 
        "no_bias": "False", 
        "num_hidden": "768"
      }, 
      "inputs": [[514, 0, 0], [515, 0, 0], [516, 0, 0]]
    }, 
    {
      "op": "Reshape", 
      "name": "bertencoder0_transformer8_multiheadattentioncell0_reshape0", 
      "attrs": {"shape": "(0, 0, 12, -1)"}, 
      "inputs": [[517, 0, 0]]
    }, 
    {
      "op": "transpose", 
      "name": "bertencoder0_transformer8_multiheadattentioncell0_transpose0", 
      "attrs": {"axes": "(0, 2, 1, 3)"}, 
      "inputs": [[518, 0, 0]]
    }, 
    {
      "op": "Reshape", 
      "name": "bertencoder0_transformer8_multiheadattentioncell0_reshape1", 
      "attrs": {
        "reverse": "True", 
        "shape": "(-1, 0, 0)"
      }, 
      "inputs": [[519, 0, 0]]
    }, 
    {
      "op": "_contrib_div_sqrt_dim", 
      "name": "bertencoder0_transformer8_multiheadattentioncell0_div_sqrt_dim0", 
      "inputs": [[520, 0, 0]]
    }, 
    {
      "op": "null", 
      "name": "bertencoder0_transformer8_multiheadattentioncell0_key_weight", 
      "attrs": {
        "__dtype__": "0", 
        "__lr_mult__": "1.0", 
        "__shape__": "(768, 768)", 
        "__storage_type__": "0", 
        "__wd_mult__": "1.0"
      }, 
      "inputs": []
    }, 
    {
      "op": "null", 
      "name": "bertencoder0_transformer8_multiheadattentioncell0_key_bias", 
      "attrs": {
        "__dtype__": "0", 
        "__init__": "zeros", 
        "__lr_mult__": "1.0", 
        "__shape__": "(768,)", 
        "__storage_type__": "0", 
        "__wd_mult__": "1.0"
      }, 
      "inputs": []
    }, 
    {
      "op": "FullyConnected", 
      "name": "bertencoder0_transformer8_multiheadattentioncell0_key_fwd", 
      "attrs": {
        "flatten": "False", 
        "no_bias": "False", 
        "num_hidden": "768"
      }, 
      "inputs": [[514, 0, 0], [522, 0, 0], [523, 0, 0]]
    }, 
    {
      "op": "Reshape", 
      "name": "bertencoder0_transformer8_multiheadattentioncell0_reshape2", 
      "attrs": {"shape": "(0, 0, 12, -1)"}, 
      "inputs": [[524, 0, 0]]
    }, 
    {
      "op": "transpose", 
      "name": "bertencoder0_transformer8_multiheadattentioncell0_transpose1", 
      "attrs": {"axes": "(0, 2, 1, 3)"}, 
      "inputs": [[525, 0, 0]]
    }, 
    {
      "op": "Reshape", 
      "name": "bertencoder0_transformer8_multiheadattentioncell0_reshape3", 
      "attrs": {
        "reverse": "True", 
        "shape": "(-1, 0, 0)"
      }, 
      "inputs": [[526, 0, 0]]
    }, 
    {
      "op": "batch_dot", 
      "name": "bertencoder0_transformer8_multiheadattentioncell0_batch_dot0", 
      "attrs": {"transpose_b": "True"}, 
      "inputs": [[521, 0, 0], [527, 0, 0]]
    }, 
    {
      "op": "ones_like", 
      "name": "bertencoder0_transformer8_multiheadattentioncell0_ones_like0", 
      "inputs": [[528, 0, 0]]
    }, 
    {
      "op": "_mul_scalar", 
      "name": "bertencoder0_transformer8_multiheadattentioncell0__mulscalar0", 
      "attrs": {"scalar": "-1e+18"}, 
      "inputs": [[529, 0, 0]]
    }, 
    {
      "op": "where", 
      "name": "bertencoder0_transformer8_multiheadattentioncell0_where0", 
      "inputs": [[34, 0, 0], [528, 0, 0], [530, 0, 0]]
    }, 
    {
      "op": "softmax", 
      "name": "bertencoder0_transformer8_multiheadattentioncell0_softmax0", 
      "attrs": {"axis": "-1"}, 
      "inputs": [[531, 0, 0]]
    }, 
    {
      "op": "elemwise_mul", 
      "name": "bertencoder0_transformer8_multiheadattentioncell0__mul0", 
      "inputs": [[532, 0, 0], [34, 0, 0]]
    }, 
    {
      "op": "Dropout", 
      "name": "bertencoder0_transformer8_dotproductattentioncell0_dropout0_fwd", 
      "attrs": {
        "axes": "()", 
        "cudnn_off": "False", 
        "p": "0.1"
      }, 
      "inputs": [[533, 0, 0]]
    }, 
    {
      "op": "Reshape", 
      "name": "bertencoder0_transformer8_multiheadattentioncell0_reshape5", 
      "attrs": {
        "reverse": "True", 
        "shape": "(-1, 12, 0, 0)"
      }, 
      "inputs": [[534, 0, 0]]
    }, 
    {
      "op": "Reshape", 
      "name": "bertencoder0_transformer8_multiheadattentioncell0_reshape6", 
      "attrs": {
        "reverse": "True", 
        "shape": "(-1, 0, 0)"
      }, 
      "inputs": [[535, 0, 0]]
    }, 
    {
      "op": "null", 
      "name": "bertencoder0_transformer8_multiheadattentioncell0_value_weight", 
      "attrs": {
        "__dtype__": "0", 
        "__lr_mult__": "1.0", 
        "__shape__": "(768, 768)", 
        "__storage_type__": "0", 
        "__wd_mult__": "1.0"
      }, 
      "inputs": []
    }, 
    {
      "op": "null", 
      "name": "bertencoder0_transformer8_multiheadattentioncell0_value_bias", 
      "attrs": {
        "__dtype__": "0", 
        "__init__": "zeros", 
        "__lr_mult__": "1.0", 
        "__shape__": "(768,)", 
        "__storage_type__": "0", 
        "__wd_mult__": "1.0"
      }, 
      "inputs": []
    }, 
    {
      "op": "FullyConnected", 
      "name": "bertencoder0_transformer8_multiheadattentioncell0_value_fwd", 
      "attrs": {
        "flatten": "False", 
        "no_bias": "False", 
        "num_hidden": "768"
      }, 
      "inputs": [[514, 0, 0], [537, 0, 0], [538, 0, 0]]
    }, 
    {
      "op": "Reshape", 
      "name": "bertencoder0_transformer8_multiheadattentioncell0_reshape7", 
      "attrs": {"shape": "(0, 0, 12, -1)"}, 
      "inputs": [[539, 0, 0]]
    }, 
    {
      "op": "transpose", 
      "name": "bertencoder0_transformer8_multiheadattentioncell0_transpose2", 
      "attrs": {"axes": "(0, 2, 1, 3)"}, 
      "inputs": [[540, 0, 0]]
    }, 
    {
      "op": "Reshape", 
      "name": "bertencoder0_transformer8_multiheadattentioncell0_reshape8", 
      "attrs": {
        "reverse": "True", 
        "shape": "(-1, 0, 0)"
      }, 
      "inputs": [[541, 0, 0]]
    }, 
    {
      "op": "batch_dot", 
      "name": "bertencoder0_transformer8_multiheadattentioncell0_batch_dot1", 
      "inputs": [[536, 0, 0], [542, 0, 0]]
    }, 
    {
      "op": "Reshape", 
      "name": "bertencoder0_transformer8_multiheadattentioncell0_reshape9", 
      "attrs": {
        "reverse": "True", 
        "shape": "(-1, 12, 0, 0)"
      }, 
      "inputs": [[543, 0, 0]]
    }, 
    {
      "op": "transpose", 
      "name": "bertencoder0_transformer8_multiheadattentioncell0_transpose3", 
      "attrs": {"axes": "(0, 2, 1, 3)"}, 
      "inputs": [[544, 0, 0]]
    }, 
    {
      "op": "Reshape", 
      "name": "bertencoder0_transformer8_multiheadattentioncell0_reshape10", 
      "attrs": {"shape": "(0, 0, -1)"}, 
      "inputs": [[545, 0, 0]]
    }, 
    {
      "op": "null", 
      "name": "bertencoder0_transformer8_proj_weight", 
      "attrs": {
        "__dtype__": "0", 
        "__lr_mult__": "1.0", 
        "__shape__": "(768, 768)", 
        "__storage_type__": "0", 
        "__wd_mult__": "1.0"
      }, 
      "inputs": []
    }, 
    {
      "op": "null", 
      "name": "bertencoder0_transformer8_proj_bias", 
      "attrs": {
        "__dtype__": "0", 
        "__init__": "zeros", 
        "__lr_mult__": "1.0", 
        "__shape__": "(768,)", 
        "__storage_type__": "0", 
        "__wd_mult__": "1.0"
      }, 
      "inputs": []
    }, 
    {
      "op": "FullyConnected", 
      "name": "bertencoder0_transformer8_proj_fwd", 
      "attrs": {
        "flatten": "False", 
        "no_bias": "False", 
        "num_hidden": "768"
      }, 
      "inputs": [[546, 0, 0], [547, 0, 0], [548, 0, 0]]
    }, 
    {
      "op": "Dropout", 
      "name": "bertencoder0_transformer8_dropout0_fwd", 
      "attrs": {
        "axes": "()", 
        "cudnn_off": "False", 
        "p": "0.1"
      }, 
      "inputs": [[549, 0, 0]]
    }, 
    {
      "op": "elemwise_add", 
      "name": "bertencoder0_transformer8__plus0", 
      "inputs": [[550, 0, 0], [514, 0, 0]]
    }, 
    {
      "op": "null", 
      "name": "bertencoder0_transformer8_bertlayernorm0_gamma", 
      "attrs": {
        "__dtype__": "0", 
        "__init__": "ones", 
        "__lr_mult__": "1.0", 
        "__shape__": "(768,)", 
        "__storage_type__": "0", 
        "__wd_mult__": "1.0"
      }, 
      "inputs": []
    }, 
    {
      "op": "null", 
      "name": "bertencoder0_transformer8_bertlayernorm0_beta", 
      "attrs": {
        "__dtype__": "0", 
        "__init__": "zeros", 
        "__lr_mult__": "1.0", 
        "__shape__": "(768,)", 
        "__storage_type__": "0", 
        "__wd_mult__": "1.0"
      }, 
      "inputs": []
    }, 
    {
      "op": "LayerNorm", 
      "name": "bertencoder0_transformer8_bertlayernorm0_layernorm0", 
      "attrs": {
        "axis": "-1", 
        "eps": "1e-12"
      }, 
      "inputs": [[551, 0, 0], [552, 0, 0], [553, 0, 0]]
    }, 
    {
      "op": "null", 
      "name": "bertencoder0_transformer8_bertpositionwiseffn0_ffn_1_weight", 
      "attrs": {
        "__dtype__": "0", 
        "__lr_mult__": "1.0", 
        "__shape__": "(3072, 768)", 
        "__storage_type__": "0", 
        "__wd_mult__": "1.0"
      }, 
      "inputs": []
    }, 
    {
      "op": "null", 
      "name": "bertencoder0_transformer8_bertpositionwiseffn0_ffn_1_bias", 
      "attrs": {
        "__dtype__": "0", 
        "__init__": "zeros", 
        "__lr_mult__": "1.0", 
        "__shape__": "(3072,)", 
        "__storage_type__": "0", 
        "__wd_mult__": "1.0"
      }, 
      "inputs": []
    }, 
    {
      "op": "FullyConnected", 
      "name": "bertencoder0_transformer8_bertpositionwiseffn0_ffn_1_fwd", 
      "attrs": {
        "flatten": "False", 
        "no_bias": "False", 
        "num_hidden": "3072"
      }, 
      "inputs": [[554, 0, 0], [555, 0, 0], [556, 0, 0]]
    }, 
    {
      "op": "_mul_scalar", 
      "name": "bertencoder0_transformer8_bertpositionwiseffn0_gelu0__mulscalar0", 
      "attrs": {"scalar": "0.5"}, 
      "inputs": [[557, 0, 0]]
    }, 
    {
      "op": "_div_scalar", 
      "name": "bertencoder0_transformer8_bertpositionwiseffn0_gelu0__divscalar0", 
      "attrs": {"scalar": "1.4142135623730951"}, 
      "inputs": [[557, 0, 0]]
    }, 
    {
      "op": "erf", 
      "name": "bertencoder0_transformer8_bertpositionwiseffn0_gelu0_erf0", 
      "inputs": [[559, 0, 0]]
    }, 
    {
      "op": "_plus_scalar", 
      "name": "bertencoder0_transformer8_bertpositionwiseffn0_gelu0__plusscalar0", 
      "attrs": {"scalar": "1.0"}, 
      "inputs": [[560, 0, 0]]
    }, 
    {
      "op": "elemwise_mul", 
      "name": "bertencoder0_transformer8_bertpositionwiseffn0_gelu0__mul0", 
      "inputs": [[558, 0, 0], [561, 0, 0]]
    }, 
    {
      "op": "null", 
      "name": "bertencoder0_transformer8_bertpositionwiseffn0_ffn_2_weight", 
      "attrs": {
        "__dtype__": "0", 
        "__lr_mult__": "1.0", 
        "__shape__": "(768, 3072)", 
        "__storage_type__": "0", 
        "__wd_mult__": "1.0"
      }, 
      "inputs": []
    }, 
    {
      "op": "null", 
      "name": "bertencoder0_transformer8_bertpositionwiseffn0_ffn_2_bias", 
      "attrs": {
        "__dtype__": "0", 
        "__init__": "zeros", 
        "__lr_mult__": "1.0", 
        "__shape__": "(768,)", 
        "__storage_type__": "0", 
        "__wd_mult__": "1.0"
      }, 
      "inputs": []
    }, 
    {
      "op": "FullyConnected", 
      "name": "bertencoder0_transformer8_bertpositionwiseffn0_ffn_2_fwd", 
      "attrs": {
        "flatten": "False", 
        "no_bias": "False", 
        "num_hidden": "768"
      }, 
      "inputs": [[562, 0, 0], [563, 0, 0], [564, 0, 0]]
    }, 
    {
      "op": "Dropout", 
      "name": "bertencoder0_transformer8_bertpositionwiseffn0_dropout0_fwd", 
      "attrs": {
        "axes": "()", 
        "cudnn_off": "False", 
        "p": "0.1"
      }, 
      "inputs": [[565, 0, 0]]
    }, 
    {
      "op": "elemwise_add", 
      "name": "bertencoder0_transformer8_bertpositionwiseffn0__plus0", 
      "inputs": [[566, 0, 0], [554, 0, 0]]
    }, 
    {
      "op": "null", 
      "name": "bertencoder0_transformer8_bertpositionwiseffn0_bertlayernorm0_gamma", 
      "attrs": {
        "__dtype__": "0", 
        "__init__": "ones", 
        "__lr_mult__": "1.0", 
        "__shape__": "(768,)", 
        "__storage_type__": "0", 
        "__wd_mult__": "1.0"
      }, 
      "inputs": []
    }, 
    {
      "op": "null", 
      "name": "bertencoder0_transformer8_bertpositionwiseffn0_bertlayernorm0_beta", 
      "attrs": {
        "__dtype__": "0", 
        "__init__": "zeros", 
        "__lr_mult__": "1.0", 
        "__shape__": "(768,)", 
        "__storage_type__": "0", 
        "__wd_mult__": "1.0"
      }, 
      "inputs": []
    }, 
    {
      "op": "LayerNorm", 
      "name": "bertencoder0_transformer8_bertpositionwiseffn0_bertlayernorm0_layernorm0", 
      "attrs": {
        "axis": "-1", 
        "eps": "1e-12"
      }, 
      "inputs": [[567, 0, 0], [568, 0, 0], [569, 0, 0]]
    }, 
    {
      "op": "null", 
      "name": "bertencoder0_transformer9_multiheadattentioncell0_query_weight", 
      "attrs": {
        "__dtype__": "0", 
        "__lr_mult__": "1.0", 
        "__shape__": "(768, 768)", 
        "__storage_type__": "0", 
        "__wd_mult__": "1.0"
      }, 
      "inputs": []
    }, 
    {
      "op": "null", 
      "name": "bertencoder0_transformer9_multiheadattentioncell0_query_bias", 
      "attrs": {
        "__dtype__": "0", 
        "__init__": "zeros", 
        "__lr_mult__": "1.0", 
        "__shape__": "(768,)", 
        "__storage_type__": "0", 
        "__wd_mult__": "1.0"
      }, 
      "inputs": []
    }, 
    {
      "op": "FullyConnected", 
      "name": "bertencoder0_transformer9_multiheadattentioncell0_query_fwd", 
      "attrs": {
        "flatten": "False", 
        "no_bias": "False", 
        "num_hidden": "768"
      }, 
      "inputs": [[570, 0, 0], [571, 0, 0], [572, 0, 0]]
    }, 
    {
      "op": "Reshape", 
      "name": "bertencoder0_transformer9_multiheadattentioncell0_reshape0", 
      "attrs": {"shape": "(0, 0, 12, -1)"}, 
      "inputs": [[573, 0, 0]]
    }, 
    {
      "op": "transpose", 
      "name": "bertencoder0_transformer9_multiheadattentioncell0_transpose0", 
      "attrs": {"axes": "(0, 2, 1, 3)"}, 
      "inputs": [[574, 0, 0]]
    }, 
    {
      "op": "Reshape", 
      "name": "bertencoder0_transformer9_multiheadattentioncell0_reshape1", 
      "attrs": {
        "reverse": "True", 
        "shape": "(-1, 0, 0)"
      }, 
      "inputs": [[575, 0, 0]]
    }, 
    {
      "op": "_contrib_div_sqrt_dim", 
      "name": "bertencoder0_transformer9_multiheadattentioncell0_div_sqrt_dim0", 
      "inputs": [[576, 0, 0]]
    }, 
    {
      "op": "null", 
      "name": "bertencoder0_transformer9_multiheadattentioncell0_key_weight", 
      "attrs": {
        "__dtype__": "0", 
        "__lr_mult__": "1.0", 
        "__shape__": "(768, 768)", 
        "__storage_type__": "0", 
        "__wd_mult__": "1.0"
      }, 
      "inputs": []
    }, 
    {
      "op": "null", 
      "name": "bertencoder0_transformer9_multiheadattentioncell0_key_bias", 
      "attrs": {
        "__dtype__": "0", 
        "__init__": "zeros", 
        "__lr_mult__": "1.0", 
        "__shape__": "(768,)", 
        "__storage_type__": "0", 
        "__wd_mult__": "1.0"
      }, 
      "inputs": []
    }, 
    {
      "op": "FullyConnected", 
      "name": "bertencoder0_transformer9_multiheadattentioncell0_key_fwd", 
      "attrs": {
        "flatten": "False", 
        "no_bias": "False", 
        "num_hidden": "768"
      }, 
      "inputs": [[570, 0, 0], [578, 0, 0], [579, 0, 0]]
    }, 
    {
      "op": "Reshape", 
      "name": "bertencoder0_transformer9_multiheadattentioncell0_reshape2", 
      "attrs": {"shape": "(0, 0, 12, -1)"}, 
      "inputs": [[580, 0, 0]]
    }, 
    {
      "op": "transpose", 
      "name": "bertencoder0_transformer9_multiheadattentioncell0_transpose1", 
      "attrs": {"axes": "(0, 2, 1, 3)"}, 
      "inputs": [[581, 0, 0]]
    }, 
    {
      "op": "Reshape", 
      "name": "bertencoder0_transformer9_multiheadattentioncell0_reshape3", 
      "attrs": {
        "reverse": "True", 
        "shape": "(-1, 0, 0)"
      }, 
      "inputs": [[582, 0, 0]]
    }, 
    {
      "op": "batch_dot", 
      "name": "bertencoder0_transformer9_multiheadattentioncell0_batch_dot0", 
      "attrs": {"transpose_b": "True"}, 
      "inputs": [[577, 0, 0], [583, 0, 0]]
    }, 
    {
      "op": "ones_like", 
      "name": "bertencoder0_transformer9_multiheadattentioncell0_ones_like0", 
      "inputs": [[584, 0, 0]]
    }, 
    {
      "op": "_mul_scalar", 
      "name": "bertencoder0_transformer9_multiheadattentioncell0__mulscalar0", 
      "attrs": {"scalar": "-1e+18"}, 
      "inputs": [[585, 0, 0]]
    }, 
    {
      "op": "where", 
      "name": "bertencoder0_transformer9_multiheadattentioncell0_where0", 
      "inputs": [[31, 0, 0], [584, 0, 0], [586, 0, 0]]
    }, 
    {
      "op": "softmax", 
      "name": "bertencoder0_transformer9_multiheadattentioncell0_softmax0", 
      "attrs": {"axis": "-1"}, 
      "inputs": [[587, 0, 0]]
    }, 
    {
      "op": "elemwise_mul", 
      "name": "bertencoder0_transformer9_multiheadattentioncell0__mul0", 
      "inputs": [[588, 0, 0], [31, 0, 0]]
    }, 
    {
      "op": "Dropout", 
      "name": "bertencoder0_transformer9_dotproductattentioncell0_dropout0_fwd", 
      "attrs": {
        "axes": "()", 
        "cudnn_off": "False", 
        "p": "0.1"
      }, 
      "inputs": [[589, 0, 0]]
    }, 
    {
      "op": "Reshape", 
      "name": "bertencoder0_transformer9_multiheadattentioncell0_reshape5", 
      "attrs": {
        "reverse": "True", 
        "shape": "(-1, 12, 0, 0)"
      }, 
      "inputs": [[590, 0, 0]]
    }, 
    {
      "op": "Reshape", 
      "name": "bertencoder0_transformer9_multiheadattentioncell0_reshape6", 
      "attrs": {
        "reverse": "True", 
        "shape": "(-1, 0, 0)"
      }, 
      "inputs": [[591, 0, 0]]
    }, 
    {
      "op": "null", 
      "name": "bertencoder0_transformer9_multiheadattentioncell0_value_weight", 
      "attrs": {
        "__dtype__": "0", 
        "__lr_mult__": "1.0", 
        "__shape__": "(768, 768)", 
        "__storage_type__": "0", 
        "__wd_mult__": "1.0"
      }, 
      "inputs": []
    }, 
    {
      "op": "null", 
      "name": "bertencoder0_transformer9_multiheadattentioncell0_value_bias", 
      "attrs": {
        "__dtype__": "0", 
        "__init__": "zeros", 
        "__lr_mult__": "1.0", 
        "__shape__": "(768,)", 
        "__storage_type__": "0", 
        "__wd_mult__": "1.0"
      }, 
      "inputs": []
    }, 
    {
      "op": "FullyConnected", 
      "name": "bertencoder0_transformer9_multiheadattentioncell0_value_fwd", 
      "attrs": {
        "flatten": "False", 
        "no_bias": "False", 
        "num_hidden": "768"
      }, 
      "inputs": [[570, 0, 0], [593, 0, 0], [594, 0, 0]]
    }, 
    {
      "op": "Reshape", 
      "name": "bertencoder0_transformer9_multiheadattentioncell0_reshape7", 
      "attrs": {"shape": "(0, 0, 12, -1)"}, 
      "inputs": [[595, 0, 0]]
    }, 
    {
      "op": "transpose", 
      "name": "bertencoder0_transformer9_multiheadattentioncell0_transpose2", 
      "attrs": {"axes": "(0, 2, 1, 3)"}, 
      "inputs": [[596, 0, 0]]
    }, 
    {
      "op": "Reshape", 
      "name": "bertencoder0_transformer9_multiheadattentioncell0_reshape8", 
      "attrs": {
        "reverse": "True", 
        "shape": "(-1, 0, 0)"
      }, 
      "inputs": [[597, 0, 0]]
    }, 
    {
      "op": "batch_dot", 
      "name": "bertencoder0_transformer9_multiheadattentioncell0_batch_dot1", 
      "inputs": [[592, 0, 0], [598, 0, 0]]
    }, 
    {
      "op": "Reshape", 
      "name": "bertencoder0_transformer9_multiheadattentioncell0_reshape9", 
      "attrs": {
        "reverse": "True", 
        "shape": "(-1, 12, 0, 0)"
      }, 
      "inputs": [[599, 0, 0]]
    }, 
    {
      "op": "transpose", 
      "name": "bertencoder0_transformer9_multiheadattentioncell0_transpose3", 
      "attrs": {"axes": "(0, 2, 1, 3)"}, 
      "inputs": [[600, 0, 0]]
    }, 
    {
      "op": "Reshape", 
      "name": "bertencoder0_transformer9_multiheadattentioncell0_reshape10", 
      "attrs": {"shape": "(0, 0, -1)"}, 
      "inputs": [[601, 0, 0]]
    }, 
    {
      "op": "null", 
      "name": "bertencoder0_transformer9_proj_weight", 
      "attrs": {
        "__dtype__": "0", 
        "__lr_mult__": "1.0", 
        "__shape__": "(768, 768)", 
        "__storage_type__": "0", 
        "__wd_mult__": "1.0"
      }, 
      "inputs": []
    }, 
    {
      "op": "null", 
      "name": "bertencoder0_transformer9_proj_bias", 
      "attrs": {
        "__dtype__": "0", 
        "__init__": "zeros", 
        "__lr_mult__": "1.0", 
        "__shape__": "(768,)", 
        "__storage_type__": "0", 
        "__wd_mult__": "1.0"
      }, 
      "inputs": []
    }, 
    {
      "op": "FullyConnected", 
      "name": "bertencoder0_transformer9_proj_fwd", 
      "attrs": {
        "flatten": "False", 
        "no_bias": "False", 
        "num_hidden": "768"
      }, 
      "inputs": [[602, 0, 0], [603, 0, 0], [604, 0, 0]]
    }, 
    {
      "op": "Dropout", 
      "name": "bertencoder0_transformer9_dropout0_fwd", 
      "attrs": {
        "axes": "()", 
        "cudnn_off": "False", 
        "p": "0.1"
      }, 
      "inputs": [[605, 0, 0]]
    }, 
    {
      "op": "elemwise_add", 
      "name": "bertencoder0_transformer9__plus0", 
      "inputs": [[606, 0, 0], [570, 0, 0]]
    }, 
    {
      "op": "null", 
      "name": "bertencoder0_transformer9_bertlayernorm0_gamma", 
      "attrs": {
        "__dtype__": "0", 
        "__init__": "ones", 
        "__lr_mult__": "1.0", 
        "__shape__": "(768,)", 
        "__storage_type__": "0", 
        "__wd_mult__": "1.0"
      }, 
      "inputs": []
    }, 
    {
      "op": "null", 
      "name": "bertencoder0_transformer9_bertlayernorm0_beta", 
      "attrs": {
        "__dtype__": "0", 
        "__init__": "zeros", 
        "__lr_mult__": "1.0", 
        "__shape__": "(768,)", 
        "__storage_type__": "0", 
        "__wd_mult__": "1.0"
      }, 
      "inputs": []
    }, 
    {
      "op": "LayerNorm", 
      "name": "bertencoder0_transformer9_bertlayernorm0_layernorm0", 
      "attrs": {
        "axis": "-1", 
        "eps": "1e-12"
      }, 
      "inputs": [[607, 0, 0], [608, 0, 0], [609, 0, 0]]
    }, 
    {
      "op": "null", 
      "name": "bertencoder0_transformer9_bertpositionwiseffn0_ffn_1_weight", 
      "attrs": {
        "__dtype__": "0", 
        "__lr_mult__": "1.0", 
        "__shape__": "(3072, 768)", 
        "__storage_type__": "0", 
        "__wd_mult__": "1.0"
      }, 
      "inputs": []
    }, 
    {
      "op": "null", 
      "name": "bertencoder0_transformer9_bertpositionwiseffn0_ffn_1_bias", 
      "attrs": {
        "__dtype__": "0", 
        "__init__": "zeros", 
        "__lr_mult__": "1.0", 
        "__shape__": "(3072,)", 
        "__storage_type__": "0", 
        "__wd_mult__": "1.0"
      }, 
      "inputs": []
    }, 
    {
      "op": "FullyConnected", 
      "name": "bertencoder0_transformer9_bertpositionwiseffn0_ffn_1_fwd", 
      "attrs": {
        "flatten": "False", 
        "no_bias": "False", 
        "num_hidden": "3072"
      }, 
      "inputs": [[610, 0, 0], [611, 0, 0], [612, 0, 0]]
    }, 
    {
      "op": "_mul_scalar", 
      "name": "bertencoder0_transformer9_bertpositionwiseffn0_gelu0__mulscalar0", 
      "attrs": {"scalar": "0.5"}, 
      "inputs": [[613, 0, 0]]
    }, 
    {
      "op": "_div_scalar", 
      "name": "bertencoder0_transformer9_bertpositionwiseffn0_gelu0__divscalar0", 
      "attrs": {"scalar": "1.4142135623730951"}, 
      "inputs": [[613, 0, 0]]
    }, 
    {
      "op": "erf", 
      "name": "bertencoder0_transformer9_bertpositionwiseffn0_gelu0_erf0", 
      "inputs": [[615, 0, 0]]
    }, 
    {
      "op": "_plus_scalar", 
      "name": "bertencoder0_transformer9_bertpositionwiseffn0_gelu0__plusscalar0", 
      "attrs": {"scalar": "1.0"}, 
      "inputs": [[616, 0, 0]]
    }, 
    {
      "op": "elemwise_mul", 
      "name": "bertencoder0_transformer9_bertpositionwiseffn0_gelu0__mul0", 
      "inputs": [[614, 0, 0], [617, 0, 0]]
    }, 
    {
      "op": "null", 
      "name": "bertencoder0_transformer9_bertpositionwiseffn0_ffn_2_weight", 
      "attrs": {
        "__dtype__": "0", 
        "__lr_mult__": "1.0", 
        "__shape__": "(768, 3072)", 
        "__storage_type__": "0", 
        "__wd_mult__": "1.0"
      }, 
      "inputs": []
    }, 
    {
      "op": "null", 
      "name": "bertencoder0_transformer9_bertpositionwiseffn0_ffn_2_bias", 
      "attrs": {
        "__dtype__": "0", 
        "__init__": "zeros", 
        "__lr_mult__": "1.0", 
        "__shape__": "(768,)", 
        "__storage_type__": "0", 
        "__wd_mult__": "1.0"
      }, 
      "inputs": []
    }, 
    {
      "op": "FullyConnected", 
      "name": "bertencoder0_transformer9_bertpositionwiseffn0_ffn_2_fwd", 
      "attrs": {
        "flatten": "False", 
        "no_bias": "False", 
        "num_hidden": "768"
      }, 
      "inputs": [[618, 0, 0], [619, 0, 0], [620, 0, 0]]
    }, 
    {
      "op": "Dropout", 
      "name": "bertencoder0_transformer9_bertpositionwiseffn0_dropout0_fwd", 
      "attrs": {
        "axes": "()", 
        "cudnn_off": "False", 
        "p": "0.1"
      }, 
      "inputs": [[621, 0, 0]]
    }, 
    {
      "op": "elemwise_add", 
      "name": "bertencoder0_transformer9_bertpositionwiseffn0__plus0", 
      "inputs": [[622, 0, 0], [610, 0, 0]]
    }, 
    {
      "op": "null", 
      "name": "bertencoder0_transformer9_bertpositionwiseffn0_bertlayernorm0_gamma", 
      "attrs": {
        "__dtype__": "0", 
        "__init__": "ones", 
        "__lr_mult__": "1.0", 
        "__shape__": "(768,)", 
        "__storage_type__": "0", 
        "__wd_mult__": "1.0"
      }, 
      "inputs": []
    }, 
    {
      "op": "null", 
      "name": "bertencoder0_transformer9_bertpositionwiseffn0_bertlayernorm0_beta", 
      "attrs": {
        "__dtype__": "0", 
        "__init__": "zeros", 
        "__lr_mult__": "1.0", 
        "__shape__": "(768,)", 
        "__storage_type__": "0", 
        "__wd_mult__": "1.0"
      }, 
      "inputs": []
    }, 
    {
      "op": "LayerNorm", 
      "name": "bertencoder0_transformer9_bertpositionwiseffn0_bertlayernorm0_layernorm0", 
      "attrs": {
        "axis": "-1", 
        "eps": "1e-12"
      }, 
      "inputs": [[623, 0, 0], [624, 0, 0], [625, 0, 0]]
    }, 
    {
      "op": "null", 
      "name": "bertencoder0_transformer10_multiheadattentioncell0_query_weight", 
      "attrs": {
        "__dtype__": "0", 
        "__lr_mult__": "1.0", 
        "__shape__": "(768, 768)", 
        "__storage_type__": "0", 
        "__wd_mult__": "1.0"
      }, 
      "inputs": []
    }, 
    {
      "op": "null", 
      "name": "bertencoder0_transformer10_multiheadattentioncell0_query_bias", 
      "attrs": {
        "__dtype__": "0", 
        "__init__": "zeros", 
        "__lr_mult__": "1.0", 
        "__shape__": "(768,)", 
        "__storage_type__": "0", 
        "__wd_mult__": "1.0"
      }, 
      "inputs": []
    }, 
    {
      "op": "FullyConnected", 
      "name": "bertencoder0_transformer10_multiheadattentioncell0_query_fwd", 
      "attrs": {
        "flatten": "False", 
        "no_bias": "False", 
        "num_hidden": "768"
      }, 
      "inputs": [[626, 0, 0], [627, 0, 0], [628, 0, 0]]
    }, 
    {
      "op": "Reshape", 
      "name": "bertencoder0_transformer10_multiheadattentioncell0_reshape0", 
      "attrs": {"shape": "(0, 0, 12, -1)"}, 
      "inputs": [[629, 0, 0]]
    }, 
    {
      "op": "transpose", 
      "name": "bertencoder0_transformer10_multiheadattentioncell0_transpose0", 
      "attrs": {"axes": "(0, 2, 1, 3)"}, 
      "inputs": [[630, 0, 0]]
    }, 
    {
      "op": "Reshape", 
      "name": "bertencoder0_transformer10_multiheadattentioncell0_reshape1", 
      "attrs": {
        "reverse": "True", 
        "shape": "(-1, 0, 0)"
      }, 
      "inputs": [[631, 0, 0]]
    }, 
    {
      "op": "_contrib_div_sqrt_dim", 
      "name": "bertencoder0_transformer10_multiheadattentioncell0_div_sqrt_dim0", 
      "inputs": [[632, 0, 0]]
    }, 
    {
      "op": "null", 
      "name": "bertencoder0_transformer10_multiheadattentioncell0_key_weight", 
      "attrs": {
        "__dtype__": "0", 
        "__lr_mult__": "1.0", 
        "__shape__": "(768, 768)", 
        "__storage_type__": "0", 
        "__wd_mult__": "1.0"
      }, 
      "inputs": []
    }, 
    {
      "op": "null", 
      "name": "bertencoder0_transformer10_multiheadattentioncell0_key_bias", 
      "attrs": {
        "__dtype__": "0", 
        "__init__": "zeros", 
        "__lr_mult__": "1.0", 
        "__shape__": "(768,)", 
        "__storage_type__": "0", 
        "__wd_mult__": "1.0"
      }, 
      "inputs": []
    }, 
    {
      "op": "FullyConnected", 
      "name": "bertencoder0_transformer10_multiheadattentioncell0_key_fwd", 
      "attrs": {
        "flatten": "False", 
        "no_bias": "False", 
        "num_hidden": "768"
      }, 
      "inputs": [[626, 0, 0], [634, 0, 0], [635, 0, 0]]
    }, 
    {
      "op": "Reshape", 
      "name": "bertencoder0_transformer10_multiheadattentioncell0_reshape2", 
      "attrs": {"shape": "(0, 0, 12, -1)"}, 
      "inputs": [[636, 0, 0]]
    }, 
    {
      "op": "transpose", 
      "name": "bertencoder0_transformer10_multiheadattentioncell0_transpose1", 
      "attrs": {"axes": "(0, 2, 1, 3)"}, 
      "inputs": [[637, 0, 0]]
    }, 
    {
      "op": "Reshape", 
      "name": "bertencoder0_transformer10_multiheadattentioncell0_reshape3", 
      "attrs": {
        "reverse": "True", 
        "shape": "(-1, 0, 0)"
      }, 
      "inputs": [[638, 0, 0]]
    }, 
    {
      "op": "batch_dot", 
      "name": "bertencoder0_transformer10_multiheadattentioncell0_batch_dot0", 
      "attrs": {"transpose_b": "True"}, 
      "inputs": [[633, 0, 0], [639, 0, 0]]
    }, 
    {
      "op": "ones_like", 
      "name": "bertencoder0_transformer10_multiheadattentioncell0_ones_like0", 
      "inputs": [[640, 0, 0]]
    }, 
    {
      "op": "_mul_scalar", 
      "name": "bertencoder0_transformer10_multiheadattentioncell0__mulscalar0", 
      "attrs": {"scalar": "-1e+18"}, 
      "inputs": [[641, 0, 0]]
    }, 
    {
      "op": "where", 
      "name": "bertencoder0_transformer10_multiheadattentioncell0_where0", 
      "inputs": [[28, 0, 0], [640, 0, 0], [642, 0, 0]]
    }, 
    {
      "op": "softmax", 
      "name": "bertencoder0_transformer10_multiheadattentioncell0_softmax0", 
      "attrs": {"axis": "-1"}, 
      "inputs": [[643, 0, 0]]
    }, 
    {
      "op": "elemwise_mul", 
      "name": "bertencoder0_transformer10_multiheadattentioncell0__mul0", 
      "inputs": [[644, 0, 0], [28, 0, 0]]
    }, 
    {
      "op": "Dropout", 
      "name": "bertencoder0_transformer10_dotproductattentioncell0_dropout0_fwd", 
      "attrs": {
        "axes": "()", 
        "cudnn_off": "False", 
        "p": "0.1"
      }, 
      "inputs": [[645, 0, 0]]
    }, 
    {
      "op": "Reshape", 
      "name": "bertencoder0_transformer10_multiheadattentioncell0_reshape5", 
      "attrs": {
        "reverse": "True", 
        "shape": "(-1, 12, 0, 0)"
      }, 
      "inputs": [[646, 0, 0]]
    }, 
    {
      "op": "Reshape", 
      "name": "bertencoder0_transformer10_multiheadattentioncell0_reshape6", 
      "attrs": {
        "reverse": "True", 
        "shape": "(-1, 0, 0)"
      }, 
      "inputs": [[647, 0, 0]]
    }, 
    {
      "op": "null", 
      "name": "bertencoder0_transformer10_multiheadattentioncell0_value_weight", 
      "attrs": {
        "__dtype__": "0", 
        "__lr_mult__": "1.0", 
        "__shape__": "(768, 768)", 
        "__storage_type__": "0", 
        "__wd_mult__": "1.0"
      }, 
      "inputs": []
    }, 
    {
      "op": "null", 
      "name": "bertencoder0_transformer10_multiheadattentioncell0_value_bias", 
      "attrs": {
        "__dtype__": "0", 
        "__init__": "zeros", 
        "__lr_mult__": "1.0", 
        "__shape__": "(768,)", 
        "__storage_type__": "0", 
        "__wd_mult__": "1.0"
      }, 
      "inputs": []
    }, 
    {
      "op": "FullyConnected", 
      "name": "bertencoder0_transformer10_multiheadattentioncell0_value_fwd", 
      "attrs": {
        "flatten": "False", 
        "no_bias": "False", 
        "num_hidden": "768"
      }, 
      "inputs": [[626, 0, 0], [649, 0, 0], [650, 0, 0]]
    }, 
    {
      "op": "Reshape", 
      "name": "bertencoder0_transformer10_multiheadattentioncell0_reshape7", 
      "attrs": {"shape": "(0, 0, 12, -1)"}, 
      "inputs": [[651, 0, 0]]
    }, 
    {
      "op": "transpose", 
      "name": "bertencoder0_transformer10_multiheadattentioncell0_transpose2", 
      "attrs": {"axes": "(0, 2, 1, 3)"}, 
      "inputs": [[652, 0, 0]]
    }, 
    {
      "op": "Reshape", 
      "name": "bertencoder0_transformer10_multiheadattentioncell0_reshape8", 
      "attrs": {
        "reverse": "True", 
        "shape": "(-1, 0, 0)"
      }, 
      "inputs": [[653, 0, 0]]
    }, 
    {
      "op": "batch_dot", 
      "name": "bertencoder0_transformer10_multiheadattentioncell0_batch_dot1", 
      "inputs": [[648, 0, 0], [654, 0, 0]]
    }, 
    {
      "op": "Reshape", 
      "name": "bertencoder0_transformer10_multiheadattentioncell0_reshape9", 
      "attrs": {
        "reverse": "True", 
        "shape": "(-1, 12, 0, 0)"
      }, 
      "inputs": [[655, 0, 0]]
    }, 
    {
      "op": "transpose", 
      "name": "bertencoder0_transformer10_multiheadattentioncell0_transpose3", 
      "attrs": {"axes": "(0, 2, 1, 3)"}, 
      "inputs": [[656, 0, 0]]
    }, 
    {
      "op": "Reshape", 
      "name": "bertencoder0_transformer10_multiheadattentioncell0_reshape10", 
      "attrs": {"shape": "(0, 0, -1)"}, 
      "inputs": [[657, 0, 0]]
    }, 
    {
      "op": "null", 
      "name": "bertencoder0_transformer10_proj_weight", 
      "attrs": {
        "__dtype__": "0", 
        "__lr_mult__": "1.0", 
        "__shape__": "(768, 768)", 
        "__storage_type__": "0", 
        "__wd_mult__": "1.0"
      }, 
      "inputs": []
    }, 
    {
      "op": "null", 
      "name": "bertencoder0_transformer10_proj_bias", 
      "attrs": {
        "__dtype__": "0", 
        "__init__": "zeros", 
        "__lr_mult__": "1.0", 
        "__shape__": "(768,)", 
        "__storage_type__": "0", 
        "__wd_mult__": "1.0"
      }, 
      "inputs": []
    }, 
    {
      "op": "FullyConnected", 
      "name": "bertencoder0_transformer10_proj_fwd", 
      "attrs": {
        "flatten": "False", 
        "no_bias": "False", 
        "num_hidden": "768"
      }, 
      "inputs": [[658, 0, 0], [659, 0, 0], [660, 0, 0]]
    }, 
    {
      "op": "Dropout", 
      "name": "bertencoder0_transformer10_dropout0_fwd", 
      "attrs": {
        "axes": "()", 
        "cudnn_off": "False", 
        "p": "0.1"
      }, 
      "inputs": [[661, 0, 0]]
    }, 
    {
      "op": "elemwise_add", 
      "name": "bertencoder0_transformer10__plus0", 
      "inputs": [[662, 0, 0], [626, 0, 0]]
    }, 
    {
      "op": "null", 
      "name": "bertencoder0_transformer10_bertlayernorm0_gamma", 
      "attrs": {
        "__dtype__": "0", 
        "__init__": "ones", 
        "__lr_mult__": "1.0", 
        "__shape__": "(768,)", 
        "__storage_type__": "0", 
        "__wd_mult__": "1.0"
      }, 
      "inputs": []
    }, 
    {
      "op": "null", 
      "name": "bertencoder0_transformer10_bertlayernorm0_beta", 
      "attrs": {
        "__dtype__": "0", 
        "__init__": "zeros", 
        "__lr_mult__": "1.0", 
        "__shape__": "(768,)", 
        "__storage_type__": "0", 
        "__wd_mult__": "1.0"
      }, 
      "inputs": []
    }, 
    {
      "op": "LayerNorm", 
      "name": "bertencoder0_transformer10_bertlayernorm0_layernorm0", 
      "attrs": {
        "axis": "-1", 
        "eps": "1e-12"
      }, 
      "inputs": [[663, 0, 0], [664, 0, 0], [665, 0, 0]]
    }, 
    {
      "op": "null", 
      "name": "bertencoder0_transformer10_bertpositionwiseffn0_ffn_1_weight", 
      "attrs": {
        "__dtype__": "0", 
        "__lr_mult__": "1.0", 
        "__shape__": "(3072, 768)", 
        "__storage_type__": "0", 
        "__wd_mult__": "1.0"
      }, 
      "inputs": []
    }, 
    {
      "op": "null", 
      "name": "bertencoder0_transformer10_bertpositionwiseffn0_ffn_1_bias", 
      "attrs": {
        "__dtype__": "0", 
        "__init__": "zeros", 
        "__lr_mult__": "1.0", 
        "__shape__": "(3072,)", 
        "__storage_type__": "0", 
        "__wd_mult__": "1.0"
      }, 
      "inputs": []
    }, 
    {
      "op": "FullyConnected", 
      "name": "bertencoder0_transformer10_bertpositionwiseffn0_ffn_1_fwd", 
      "attrs": {
        "flatten": "False", 
        "no_bias": "False", 
        "num_hidden": "3072"
      }, 
      "inputs": [[666, 0, 0], [667, 0, 0], [668, 0, 0]]
    }, 
    {
      "op": "_mul_scalar", 
      "name": "bertencoder0_transformer10_bertpositionwiseffn0_gelu0__mulscalar0", 
      "attrs": {"scalar": "0.5"}, 
      "inputs": [[669, 0, 0]]
    }, 
    {
      "op": "_div_scalar", 
      "name": "bertencoder0_transformer10_bertpositionwiseffn0_gelu0__divscalar0", 
      "attrs": {"scalar": "1.4142135623730951"}, 
      "inputs": [[669, 0, 0]]
    }, 
    {
      "op": "erf", 
      "name": "bertencoder0_transformer10_bertpositionwiseffn0_gelu0_erf0", 
      "inputs": [[671, 0, 0]]
    }, 
    {
      "op": "_plus_scalar", 
      "name": "bertencoder0_transformer10_bertpositionwiseffn0_gelu0__plusscalar0", 
      "attrs": {"scalar": "1.0"}, 
      "inputs": [[672, 0, 0]]
    }, 
    {
      "op": "elemwise_mul", 
      "name": "bertencoder0_transformer10_bertpositionwiseffn0_gelu0__mul0", 
      "inputs": [[670, 0, 0], [673, 0, 0]]
    }, 
    {
      "op": "null", 
      "name": "bertencoder0_transformer10_bertpositionwiseffn0_ffn_2_weight", 
      "attrs": {
        "__dtype__": "0", 
        "__lr_mult__": "1.0", 
        "__shape__": "(768, 3072)", 
        "__storage_type__": "0", 
        "__wd_mult__": "1.0"
      }, 
      "inputs": []
    }, 
    {
      "op": "null", 
      "name": "bertencoder0_transformer10_bertpositionwiseffn0_ffn_2_bias", 
      "attrs": {
        "__dtype__": "0", 
        "__init__": "zeros", 
        "__lr_mult__": "1.0", 
        "__shape__": "(768,)", 
        "__storage_type__": "0", 
        "__wd_mult__": "1.0"
      }, 
      "inputs": []
    }, 
    {
      "op": "FullyConnected", 
      "name": "bertencoder0_transformer10_bertpositionwiseffn0_ffn_2_fwd", 
      "attrs": {
        "flatten": "False", 
        "no_bias": "False", 
        "num_hidden": "768"
      }, 
      "inputs": [[674, 0, 0], [675, 0, 0], [676, 0, 0]]
    }, 
    {
      "op": "Dropout", 
      "name": "bertencoder0_transformer10_bertpositionwiseffn0_dropout0_fwd", 
      "attrs": {
        "axes": "()", 
        "cudnn_off": "False", 
        "p": "0.1"
      }, 
      "inputs": [[677, 0, 0]]
    }, 
    {
      "op": "elemwise_add", 
      "name": "bertencoder0_transformer10_bertpositionwiseffn0__plus0", 
      "inputs": [[678, 0, 0], [666, 0, 0]]
    }, 
    {
      "op": "null", 
      "name": "bertencoder0_transformer10_bertpositionwiseffn0_bertlayernorm0_gamma", 
      "attrs": {
        "__dtype__": "0", 
        "__init__": "ones", 
        "__lr_mult__": "1.0", 
        "__shape__": "(768,)", 
        "__storage_type__": "0", 
        "__wd_mult__": "1.0"
      }, 
      "inputs": []
    }, 
    {
      "op": "null", 
      "name": "bertencoder0_transformer10_bertpositionwiseffn0_bertlayernorm0_beta", 
      "attrs": {
        "__dtype__": "0", 
        "__init__": "zeros", 
        "__lr_mult__": "1.0", 
        "__shape__": "(768,)", 
        "__storage_type__": "0", 
        "__wd_mult__": "1.0"
      }, 
      "inputs": []
    }, 
    {
      "op": "LayerNorm", 
      "name": "bertencoder0_transformer10_bertpositionwiseffn0_bertlayernorm0_layernorm0", 
      "attrs": {
        "axis": "-1", 
        "eps": "1e-12"
      }, 
      "inputs": [[679, 0, 0], [680, 0, 0], [681, 0, 0]]
    }, 
    {
      "op": "null", 
      "name": "bertencoder0_transformer11_multiheadattentioncell0_query_weight", 
      "attrs": {
        "__dtype__": "0", 
        "__lr_mult__": "1.0", 
        "__shape__": "(768, 768)", 
        "__storage_type__": "0", 
        "__wd_mult__": "1.0"
      }, 
      "inputs": []
    }, 
    {
      "op": "null", 
      "name": "bertencoder0_transformer11_multiheadattentioncell0_query_bias", 
      "attrs": {
        "__dtype__": "0", 
        "__init__": "zeros", 
        "__lr_mult__": "1.0", 
        "__shape__": "(768,)", 
        "__storage_type__": "0", 
        "__wd_mult__": "1.0"
      }, 
      "inputs": []
    }, 
    {
      "op": "FullyConnected", 
      "name": "bertencoder0_transformer11_multiheadattentioncell0_query_fwd", 
      "attrs": {
        "flatten": "False", 
        "no_bias": "False", 
        "num_hidden": "768"
      }, 
      "inputs": [[682, 0, 0], [683, 0, 0], [684, 0, 0]]
    }, 
    {
      "op": "Reshape", 
      "name": "bertencoder0_transformer11_multiheadattentioncell0_reshape0", 
      "attrs": {"shape": "(0, 0, 12, -1)"}, 
      "inputs": [[685, 0, 0]]
    }, 
    {
      "op": "transpose", 
      "name": "bertencoder0_transformer11_multiheadattentioncell0_transpose0", 
      "attrs": {"axes": "(0, 2, 1, 3)"}, 
      "inputs": [[686, 0, 0]]
    }, 
    {
      "op": "Reshape", 
      "name": "bertencoder0_transformer11_multiheadattentioncell0_reshape1", 
      "attrs": {
        "reverse": "True", 
        "shape": "(-1, 0, 0)"
      }, 
      "inputs": [[687, 0, 0]]
    }, 
    {
      "op": "_contrib_div_sqrt_dim", 
      "name": "bertencoder0_transformer11_multiheadattentioncell0_div_sqrt_dim0", 
      "inputs": [[688, 0, 0]]
    }, 
    {
      "op": "null", 
      "name": "bertencoder0_transformer11_multiheadattentioncell0_key_weight", 
      "attrs": {
        "__dtype__": "0", 
        "__lr_mult__": "1.0", 
        "__shape__": "(768, 768)", 
        "__storage_type__": "0", 
        "__wd_mult__": "1.0"
      }, 
      "inputs": []
    }, 
    {
      "op": "null", 
      "name": "bertencoder0_transformer11_multiheadattentioncell0_key_bias", 
      "attrs": {
        "__dtype__": "0", 
        "__init__": "zeros", 
        "__lr_mult__": "1.0", 
        "__shape__": "(768,)", 
        "__storage_type__": "0", 
        "__wd_mult__": "1.0"
      }, 
      "inputs": []
    }, 
    {
      "op": "FullyConnected", 
      "name": "bertencoder0_transformer11_multiheadattentioncell0_key_fwd", 
      "attrs": {
        "flatten": "False", 
        "no_bias": "False", 
        "num_hidden": "768"
      }, 
      "inputs": [[682, 0, 0], [690, 0, 0], [691, 0, 0]]
    }, 
    {
      "op": "Reshape", 
      "name": "bertencoder0_transformer11_multiheadattentioncell0_reshape2", 
      "attrs": {"shape": "(0, 0, 12, -1)"}, 
      "inputs": [[692, 0, 0]]
    }, 
    {
      "op": "transpose", 
      "name": "bertencoder0_transformer11_multiheadattentioncell0_transpose1", 
      "attrs": {"axes": "(0, 2, 1, 3)"}, 
      "inputs": [[693, 0, 0]]
    }, 
    {
      "op": "Reshape", 
      "name": "bertencoder0_transformer11_multiheadattentioncell0_reshape3", 
      "attrs": {
        "reverse": "True", 
        "shape": "(-1, 0, 0)"
      }, 
      "inputs": [[694, 0, 0]]
    }, 
    {
      "op": "batch_dot", 
      "name": "bertencoder0_transformer11_multiheadattentioncell0_batch_dot0", 
      "attrs": {"transpose_b": "True"}, 
      "inputs": [[689, 0, 0], [695, 0, 0]]
    }, 
    {
      "op": "ones_like", 
      "name": "bertencoder0_transformer11_multiheadattentioncell0_ones_like0", 
      "inputs": [[696, 0, 0]]
    }, 
    {
      "op": "_mul_scalar", 
      "name": "bertencoder0_transformer11_multiheadattentioncell0__mulscalar0", 
      "attrs": {"scalar": "-1e+18"}, 
      "inputs": [[697, 0, 0]]
    }, 
    {
      "op": "where", 
      "name": "bertencoder0_transformer11_multiheadattentioncell0_where0", 
      "inputs": [[25, 0, 0], [696, 0, 0], [698, 0, 0]]
    }, 
    {
      "op": "softmax", 
      "name": "bertencoder0_transformer11_multiheadattentioncell0_softmax0", 
      "attrs": {"axis": "-1"}, 
      "inputs": [[699, 0, 0]]
    }, 
    {
      "op": "elemwise_mul", 
      "name": "bertencoder0_transformer11_multiheadattentioncell0__mul0", 
      "inputs": [[700, 0, 0], [25, 0, 0]]
    }, 
    {
      "op": "Dropout", 
      "name": "bertencoder0_transformer11_dotproductattentioncell0_dropout0_fwd", 
      "attrs": {
        "axes": "()", 
        "cudnn_off": "False", 
        "p": "0.1"
      }, 
      "inputs": [[701, 0, 0]]
    }, 
    {
      "op": "Reshape", 
      "name": "bertencoder0_transformer11_multiheadattentioncell0_reshape5", 
      "attrs": {
        "reverse": "True", 
        "shape": "(-1, 12, 0, 0)"
      }, 
      "inputs": [[702, 0, 0]]
    }, 
    {
      "op": "Reshape", 
      "name": "bertencoder0_transformer11_multiheadattentioncell0_reshape6", 
      "attrs": {
        "reverse": "True", 
        "shape": "(-1, 0, 0)"
      }, 
      "inputs": [[703, 0, 0]]
    }, 
    {
      "op": "null", 
      "name": "bertencoder0_transformer11_multiheadattentioncell0_value_weight", 
      "attrs": {
        "__dtype__": "0", 
        "__lr_mult__": "1.0", 
        "__shape__": "(768, 768)", 
        "__storage_type__": "0", 
        "__wd_mult__": "1.0"
      }, 
      "inputs": []
    }, 
    {
      "op": "null", 
      "name": "bertencoder0_transformer11_multiheadattentioncell0_value_bias", 
      "attrs": {
        "__dtype__": "0", 
        "__init__": "zeros", 
        "__lr_mult__": "1.0", 
        "__shape__": "(768,)", 
        "__storage_type__": "0", 
        "__wd_mult__": "1.0"
      }, 
      "inputs": []
    }, 
    {
      "op": "FullyConnected", 
      "name": "bertencoder0_transformer11_multiheadattentioncell0_value_fwd", 
      "attrs": {
        "flatten": "False", 
        "no_bias": "False", 
        "num_hidden": "768"
      }, 
      "inputs": [[682, 0, 0], [705, 0, 0], [706, 0, 0]]
    }, 
    {
      "op": "Reshape", 
      "name": "bertencoder0_transformer11_multiheadattentioncell0_reshape7", 
      "attrs": {"shape": "(0, 0, 12, -1)"}, 
      "inputs": [[707, 0, 0]]
    }, 
    {
      "op": "transpose", 
      "name": "bertencoder0_transformer11_multiheadattentioncell0_transpose2", 
      "attrs": {"axes": "(0, 2, 1, 3)"}, 
      "inputs": [[708, 0, 0]]
    }, 
    {
      "op": "Reshape", 
      "name": "bertencoder0_transformer11_multiheadattentioncell0_reshape8", 
      "attrs": {
        "reverse": "True", 
        "shape": "(-1, 0, 0)"
      }, 
      "inputs": [[709, 0, 0]]
    }, 
    {
      "op": "batch_dot", 
      "name": "bertencoder0_transformer11_multiheadattentioncell0_batch_dot1", 
      "inputs": [[704, 0, 0], [710, 0, 0]]
    }, 
    {
      "op": "Reshape", 
      "name": "bertencoder0_transformer11_multiheadattentioncell0_reshape9", 
      "attrs": {
        "reverse": "True", 
        "shape": "(-1, 12, 0, 0)"
      }, 
      "inputs": [[711, 0, 0]]
    }, 
    {
      "op": "transpose", 
      "name": "bertencoder0_transformer11_multiheadattentioncell0_transpose3", 
      "attrs": {"axes": "(0, 2, 1, 3)"}, 
      "inputs": [[712, 0, 0]]
    }, 
    {
      "op": "Reshape", 
      "name": "bertencoder0_transformer11_multiheadattentioncell0_reshape10", 
      "attrs": {"shape": "(0, 0, -1)"}, 
      "inputs": [[713, 0, 0]]
    }, 
    {
      "op": "null", 
      "name": "bertencoder0_transformer11_proj_weight", 
      "attrs": {
        "__dtype__": "0", 
        "__lr_mult__": "1.0", 
        "__shape__": "(768, 768)", 
        "__storage_type__": "0", 
        "__wd_mult__": "1.0"
      }, 
      "inputs": []
    }, 
    {
      "op": "null", 
      "name": "bertencoder0_transformer11_proj_bias", 
      "attrs": {
        "__dtype__": "0", 
        "__init__": "zeros", 
        "__lr_mult__": "1.0", 
        "__shape__": "(768,)", 
        "__storage_type__": "0", 
        "__wd_mult__": "1.0"
      }, 
      "inputs": []
    }, 
    {
      "op": "FullyConnected", 
      "name": "bertencoder0_transformer11_proj_fwd", 
      "attrs": {
        "flatten": "False", 
        "no_bias": "False", 
        "num_hidden": "768"
      }, 
      "inputs": [[714, 0, 0], [715, 0, 0], [716, 0, 0]]
    }, 
    {
      "op": "Dropout", 
      "name": "bertencoder0_transformer11_dropout0_fwd", 
      "attrs": {
        "axes": "()", 
        "cudnn_off": "False", 
        "p": "0.1"
      }, 
      "inputs": [[717, 0, 0]]
    }, 
    {
      "op": "elemwise_add", 
      "name": "bertencoder0_transformer11__plus0", 
      "inputs": [[718, 0, 0], [682, 0, 0]]
    }, 
    {
      "op": "null", 
      "name": "bertencoder0_transformer11_bertlayernorm0_gamma", 
      "attrs": {
        "__dtype__": "0", 
        "__init__": "ones", 
        "__lr_mult__": "1.0", 
        "__shape__": "(768,)", 
        "__storage_type__": "0", 
        "__wd_mult__": "1.0"
      }, 
      "inputs": []
    }, 
    {
      "op": "null", 
      "name": "bertencoder0_transformer11_bertlayernorm0_beta", 
      "attrs": {
        "__dtype__": "0", 
        "__init__": "zeros", 
        "__lr_mult__": "1.0", 
        "__shape__": "(768,)", 
        "__storage_type__": "0", 
        "__wd_mult__": "1.0"
      }, 
      "inputs": []
    }, 
    {
      "op": "LayerNorm", 
      "name": "bertencoder0_transformer11_bertlayernorm0_layernorm0", 
      "attrs": {
        "axis": "-1", 
        "eps": "1e-12"
      }, 
      "inputs": [[719, 0, 0], [720, 0, 0], [721, 0, 0]]
    }, 
    {
      "op": "null", 
      "name": "bertencoder0_transformer11_bertpositionwiseffn0_ffn_1_weight", 
      "attrs": {
        "__dtype__": "0", 
        "__lr_mult__": "1.0", 
        "__shape__": "(3072, 768)", 
        "__storage_type__": "0", 
        "__wd_mult__": "1.0"
      }, 
      "inputs": []
    }, 
    {
      "op": "null", 
      "name": "bertencoder0_transformer11_bertpositionwiseffn0_ffn_1_bias", 
      "attrs": {
        "__dtype__": "0", 
        "__init__": "zeros", 
        "__lr_mult__": "1.0", 
        "__shape__": "(3072,)", 
        "__storage_type__": "0", 
        "__wd_mult__": "1.0"
      }, 
      "inputs": []
    }, 
    {
      "op": "FullyConnected", 
      "name": "bertencoder0_transformer11_bertpositionwiseffn0_ffn_1_fwd", 
      "attrs": {
        "flatten": "False", 
        "no_bias": "False", 
        "num_hidden": "3072"
      }, 
      "inputs": [[722, 0, 0], [723, 0, 0], [724, 0, 0]]
    }, 
    {
      "op": "_mul_scalar", 
      "name": "bertencoder0_transformer11_bertpositionwiseffn0_gelu0__mulscalar0", 
      "attrs": {"scalar": "0.5"}, 
      "inputs": [[725, 0, 0]]
    }, 
    {
      "op": "_div_scalar", 
      "name": "bertencoder0_transformer11_bertpositionwiseffn0_gelu0__divscalar0", 
      "attrs": {"scalar": "1.4142135623730951"}, 
      "inputs": [[725, 0, 0]]
    }, 
    {
      "op": "erf", 
      "name": "bertencoder0_transformer11_bertpositionwiseffn0_gelu0_erf0", 
      "inputs": [[727, 0, 0]]
    }, 
    {
      "op": "_plus_scalar", 
      "name": "bertencoder0_transformer11_bertpositionwiseffn0_gelu0__plusscalar0", 
      "attrs": {"scalar": "1.0"}, 
      "inputs": [[728, 0, 0]]
    }, 
    {
      "op": "elemwise_mul", 
      "name": "bertencoder0_transformer11_bertpositionwiseffn0_gelu0__mul0", 
      "inputs": [[726, 0, 0], [729, 0, 0]]
    }, 
    {
      "op": "null", 
      "name": "bertencoder0_transformer11_bertpositionwiseffn0_ffn_2_weight", 
      "attrs": {
        "__dtype__": "0", 
        "__lr_mult__": "1.0", 
        "__shape__": "(768, 3072)", 
        "__storage_type__": "0", 
        "__wd_mult__": "1.0"
      }, 
      "inputs": []
    }, 
    {
      "op": "null", 
      "name": "bertencoder0_transformer11_bertpositionwiseffn0_ffn_2_bias", 
      "attrs": {
        "__dtype__": "0", 
        "__init__": "zeros", 
        "__lr_mult__": "1.0", 
        "__shape__": "(768,)", 
        "__storage_type__": "0", 
        "__wd_mult__": "1.0"
      }, 
      "inputs": []
    }, 
    {
      "op": "FullyConnected", 
      "name": "bertencoder0_transformer11_bertpositionwiseffn0_ffn_2_fwd", 
      "attrs": {
        "flatten": "False", 
        "no_bias": "False", 
        "num_hidden": "768"
      }, 
      "inputs": [[730, 0, 0], [731, 0, 0], [732, 0, 0]]
    }, 
    {
      "op": "Dropout", 
      "name": "bertencoder0_transformer11_bertpositionwiseffn0_dropout0_fwd", 
      "attrs": {
        "axes": "()", 
        "cudnn_off": "False", 
        "p": "0.1"
      }, 
      "inputs": [[733, 0, 0]]
    }, 
    {
      "op": "elemwise_add", 
      "name": "bertencoder0_transformer11_bertpositionwiseffn0__plus0", 
      "inputs": [[734, 0, 0], [722, 0, 0]]
    }, 
    {
      "op": "null", 
      "name": "bertencoder0_transformer11_bertpositionwiseffn0_bertlayernorm0_gamma", 
      "attrs": {
        "__dtype__": "0", 
        "__init__": "ones", 
        "__lr_mult__": "1.0", 
        "__shape__": "(768,)", 
        "__storage_type__": "0", 
        "__wd_mult__": "1.0"
      }, 
      "inputs": []
    }, 
    {
      "op": "null", 
      "name": "bertencoder0_transformer11_bertpositionwiseffn0_bertlayernorm0_beta", 
      "attrs": {
        "__dtype__": "0", 
        "__init__": "zeros", 
        "__lr_mult__": "1.0", 
        "__shape__": "(768,)", 
        "__storage_type__": "0", 
        "__wd_mult__": "1.0"
      }, 
      "inputs": []
    }, 
    {
      "op": "LayerNorm", 
      "name": "bertencoder0_transformer11_bertpositionwiseffn0_bertlayernorm0_layernorm0", 
      "attrs": {
        "axis": "-1", 
        "eps": "1e-12"
      }, 
      "inputs": [[735, 0, 0], [736, 0, 0], [737, 0, 0]]
    }, 
    {
      "op": "SequenceMask", 
      "name": "bertencoder0_sequencemask0", 
      "attrs": {
        "axis": "1", 
        "use_sequence_length": "True"
      }, 
      "inputs": [[738, 0, 0], [15, 0, 0]]
    }, 
    {
      "op": "slice", 
      "name": "bertmodel0_slice0", 
      "attrs": {
        "begin": "(0, 0, 0)", 
        "end": "(None, 1, None)"
      }, 
      "inputs": [[739, 0, 0]]
    }, 
    {
      "op": "Reshape", 
      "name": "bertmodel0_reshape0", 
      "attrs": {"shape": "(-1, 768)"}, 
      "inputs": [[740, 0, 0]]
    }, 
    {
      "op": "null", 
      "name": "bertmodel0_pooler_weight", 
      "attrs": {
        "__dtype__": "0", 
        "__lr_mult__": "1.0", 
        "__shape__": "(768, 768)", 
        "__storage_type__": "0", 
        "__wd_mult__": "1.0"
      }, 
      "inputs": []
    }, 
    {
      "op": "null", 
      "name": "bertmodel0_pooler_bias", 
      "attrs": {
        "__dtype__": "0", 
        "__init__": "zeros", 
        "__lr_mult__": "1.0", 
        "__shape__": "(768,)", 
        "__storage_type__": "0", 
        "__wd_mult__": "1.0"
      }, 
      "inputs": []
    }, 
    {
      "op": "FullyConnected", 
      "name": "bertmodel0_pooler_fwd", 
      "attrs": {
        "flatten": "False", 
        "no_bias": "False", 
        "num_hidden": "768"
      }, 
      "inputs": [[741, 0, 0], [742, 0, 0], [743, 0, 0]]
    }, 
    {
      "op": "Activation", 
      "name": "bertmodel0_pooler_tanh_fwd", 
      "attrs": {"act_type": "tanh"}, 
      "inputs": [[744, 0, 0]]
    }, 
    {
      "op": "Dropout", 
      "name": "bertclassifier0_dropout0_fwd", 
      "attrs": {
        "axes": "()", 
        "cudnn_off": "False", 
        "p": "0.1"
      }, 
      "inputs": [[745, 0, 0]]
    }, 
    {
      "op": "null", 
      "name": "bertclassifier0_dense0_weight", 
      "attrs": {
        "__dtype__": "0", 
        "__lr_mult__": "1.0", 
        "__shape__": "(2, 0)", 
        "__storage_type__": "0", 
        "__wd_mult__": "1.0"
      }, 
      "inputs": []
    }, 
    {
      "op": "null", 
      "name": "bertclassifier0_dense0_bias", 
      "attrs": {
        "__dtype__": "0", 
        "__init__": "zeros", 
        "__lr_mult__": "1.0", 
        "__shape__": "(2,)", 
        "__storage_type__": "0", 
        "__wd_mult__": "1.0"
      }, 
      "inputs": []
    }, 
    {
      "op": "FullyConnected", 
      "name": "bertclassifier0_dense0_fwd", 
      "attrs": {
        "flatten": "True", 
        "no_bias": "False", 
        "num_hidden": "2"
      }, 
      "inputs": [[746, 0, 0], [747, 0, 0], [748, 0, 0]]
    }
  ], 
  "arg_nodes": [
    1, 
    2, 
    5, 
    6, 
    15, 
    59, 
    64, 
    65, 
    67, 
    68, 
    74, 
    75, 
    89, 
    90, 
    99, 
    100, 
    104, 
    105, 
    107, 
    108, 
    115, 
    116, 
    120, 
    121, 
    123, 
    124, 
    130, 
    131, 
    145, 
    146, 
    155, 
    156, 
    160, 
    161, 
    163, 
    164, 
    171, 
    172, 
    176, 
    177, 
    179, 
    180, 
    186, 
    187, 
    201, 
    202, 
    211, 
    212, 
    216, 
    217, 
    219, 
    220, 
    227, 
    228, 
    232, 
    233, 
    235, 
    236, 
    242, 
    243, 
    257, 
    258, 
    267, 
    268, 
    272, 
    273, 
    275, 
    276, 
    283, 
    284, 
    288, 
    289, 
    291, 
    292, 
    298, 
    299, 
    313, 
    314, 
    323, 
    324, 
    328, 
    329, 
    331, 
    332, 
    339, 
    340, 
    344, 
    345, 
    347, 
    348, 
    354, 
    355, 
    369, 
    370, 
    379, 
    380, 
    384, 
    385, 
    387, 
    388, 
    395, 
    396, 
    400, 
    401, 
    403, 
    404, 
    410, 
    411, 
    425, 
    426, 
    435, 
    436, 
    440, 
    441, 
    443, 
    444, 
    451, 
    452, 
    456, 
    457, 
    459, 
    460, 
    466, 
    467, 
    481, 
    482, 
    491, 
    492, 
    496, 
    497, 
    499, 
    500, 
    507, 
    508, 
    512, 
    513, 
    515, 
    516, 
    522, 
    523, 
    537, 
    538, 
    547, 
    548, 
    552, 
    553, 
    555, 
    556, 
    563, 
    564, 
    568, 
    569, 
    571, 
    572, 
    578, 
    579, 
    593, 
    594, 
    603, 
    604, 
    608, 
    609, 
    611, 
    612, 
    619, 
    620, 
    624, 
    625, 
    627, 
    628, 
    634, 
    635, 
    649, 
    650, 
    659, 
    660, 
    664, 
    665, 
    667, 
    668, 
    675, 
    676, 
    680, 
    681, 
    683, 
    684, 
    690, 
    691, 
    705, 
    706, 
    715, 
    716, 
    720, 
    721, 
    723, 
    724, 
    731, 
    732, 
    736, 
    737, 
    742, 
    743, 
    747, 
    748
  ], 
  "node_row_ptr": [
    0, 
    1, 
    2, 
    3, 
    4, 
    6, 
    7, 
    8, 
    9, 
    11, 
    12, 
    13, 
    14, 
    15, 
    16, 
    17, 
    18, 
    19, 
    20, 
    21, 
    22, 
    23, 
    24, 
    25, 
    26, 
    27, 
    28, 
    29, 
    30, 
    31, 
    32, 
    33, 
    34, 
    35, 
    36, 
    37, 
    38, 
    39, 
    40, 
    41, 
    42, 
    43, 
    44, 
    45, 
    46, 
    47, 
    48, 
    49, 
    50, 
    51, 
    52, 
    53, 
    54, 
    55, 
    56, 
    57, 
    58, 
    59, 
    60, 
    61, 
    62, 
    63, 
    64, 
    65, 
    67, 
    68, 
    69, 
    72, 
    73, 
    74, 
    75, 
    76, 
    77, 
    78, 
    79, 
    80, 
    81, 
    82, 
    83, 
    84, 
    85, 
    86, 
    87, 
    88, 
    89, 
    90, 
    91, 
    93, 
    94, 
    95, 
    96, 
    97, 
    98, 
    99, 
    100, 
    101, 
    102, 
    103, 
    104, 
    105, 
    106, 
    107, 
    108, 
    110, 
    111, 
    112, 
    113, 
    116, 
    117, 
    118, 
    119, 
    120, 
    121, 
    122, 
    123, 
    124, 
    125, 
    126, 
    127, 
    129, 
    130, 
    131, 
    132, 
    135, 
    136, 
    137, 
    138, 
    139, 
    140, 
    141, 
    142, 
    143, 
    144, 
    145, 
    146, 
    147, 
    148, 
    149, 
    150, 
    151, 
    152, 
    153, 
    154, 
    156, 
    157, 
    158, 
    159, 
    160, 
    161, 
    162, 
    163, 
    164, 
    165, 
    166, 
    167, 
    168, 
    169, 
    170, 
    171, 
    173, 
    174, 
    175, 
    176, 
    179, 
    180, 
    181, 
    182, 
    183, 
    184, 
    185, 
    186, 
    187, 
    188, 
    189, 
    190, 
    192, 
    193, 
    194, 
    195, 
    198, 
    199, 
    200, 
    201, 
    202, 
    203, 
    204, 
    205, 
    206, 
    207, 
    208, 
    209, 
    210, 
    211, 
    212, 
    213, 
    214, 
    215, 
    216, 
    217, 
    219, 
    220, 
    221, 
    222, 
    223, 
    224, 
    225, 
    226, 
    227, 
    228, 
    229, 
    230, 
    231, 
    232, 
    233, 
    234, 
    236, 
    237, 
    238, 
    239, 
    242, 
    243, 
    244, 
    245, 
    246, 
    247, 
    248, 
    249, 
    250, 
    251, 
    252, 
    253, 
    255, 
    256, 
    257, 
    258, 
    261, 
    262, 
    263, 
    264, 
    265, 
    266, 
    267, 
    268, 
    269, 
    270, 
    271, 
    272, 
    273, 
    274, 
    275, 
    276, 
    277, 
    278, 
    279, 
    280, 
    282, 
    283, 
    284, 
    285, 
    286, 
    287, 
    288, 
    289, 
    290, 
    291, 
    292, 
    293, 
    294, 
    295, 
    296, 
    297, 
    299, 
    300, 
    301, 
    302, 
    305, 
    306, 
    307, 
    308, 
    309, 
    310, 
    311, 
    312, 
    313, 
    314, 
    315, 
    316, 
    318, 
    319, 
    320, 
    321, 
    324, 
    325, 
    326, 
    327, 
    328, 
    329, 
    330, 
    331, 
    332, 
    333, 
    334, 
    335, 
    336, 
    337, 
    338, 
    339, 
    340, 
    341, 
    342, 
    343, 
    345, 
    346, 
    347, 
    348, 
    349, 
    350, 
    351, 
    352, 
    353, 
    354, 
    355, 
    356, 
    357, 
    358, 
    359, 
    360, 
    362, 
    363, 
    364, 
    365, 
    368, 
    369, 
    370, 
    371, 
    372, 
    373, 
    374, 
    375, 
    376, 
    377, 
    378, 
    379, 
    381, 
    382, 
    383, 
    384, 
    387, 
    388, 
    389, 
    390, 
    391, 
    392, 
    393, 
    394, 
    395, 
    396, 
    397, 
    398, 
    399, 
    400, 
    401, 
    402, 
    403, 
    404, 
    405, 
    406, 
    408, 
    409, 
    410, 
    411, 
    412, 
    413, 
    414, 
    415, 
    416, 
    417, 
    418, 
    419, 
    420, 
    421, 
    422, 
    423, 
    425, 
    426, 
    427, 
    428, 
    431, 
    432, 
    433, 
    434, 
    435, 
    436, 
    437, 
    438, 
    439, 
    440, 
    441, 
    442, 
    444, 
    445, 
    446, 
    447, 
    450, 
    451, 
    452, 
    453, 
    454, 
    455, 
    456, 
    457, 
    458, 
    459, 
    460, 
    461, 
    462, 
    463, 
    464, 
    465, 
    466, 
    467, 
    468, 
    469, 
    471, 
    472, 
    473, 
    474, 
    475, 
    476, 
    477, 
    478, 
    479, 
    480, 
    481, 
    482, 
    483, 
    484, 
    485, 
    486, 
    488, 
    489, 
    490, 
    491, 
    494, 
    495, 
    496, 
    497, 
    498, 
    499, 
    500, 
    501, 
    502, 
    503, 
    504, 
    505, 
    507, 
    508, 
    509, 
    510, 
    513, 
    514, 
    515, 
    516, 
    517, 
    518, 
    519, 
    520, 
    521, 
    522, 
    523, 
    524, 
    525, 
    526, 
    527, 
    528, 
    529, 
    530, 
    531, 
    532, 
    534, 
    535, 
    536, 
    537, 
    538, 
    539, 
    540, 
    541, 
    542, 
    543, 
    544, 
    545, 
    546, 
    547, 
    548, 
    549, 
    551, 
    552, 
    553, 
    554, 
    557, 
    558, 
    559, 
    560, 
    561, 
    562, 
    563, 
    564, 
    565, 
    566, 
    567, 
    568, 
    570, 
    571, 
    572, 
    573, 
    576, 
    577, 
    578, 
    579, 
    580, 
    581, 
    582, 
    583, 
    584, 
    585, 
    586, 
    587, 
    588, 
    589, 
    590, 
    591, 
    592, 
    593, 
    594, 
    595, 
    597, 
    598, 
    599, 
    600, 
    601, 
    602, 
    603, 
    604, 
    605, 
    606, 
    607, 
    608, 
    609, 
    610, 
    611, 
    612, 
    614, 
    615, 
    616, 
    617, 
    620, 
    621, 
    622, 
    623, 
    624, 
    625, 
    626, 
    627, 
    628, 
    629, 
    630, 
    631, 
    633, 
    634, 
    635, 
    636, 
    639, 
    640, 
    641, 
    642, 
    643, 
    644, 
    645, 
    646, 
    647, 
    648, 
    649, 
    650, 
    651, 
    652, 
    653, 
    654, 
    655, 
    656, 
    657, 
    658, 
    660, 
    661, 
    662, 
    663, 
    664, 
    665, 
    666, 
    667, 
    668, 
    669, 
    670, 
    671, 
    672, 
    673, 
    674, 
    675, 
    677, 
    678, 
    679, 
    680, 
    683, 
    684, 
    685, 
    686, 
    687, 
    688, 
    689, 
    690, 
    691, 
    692, 
    693, 
    694, 
    696, 
    697, 
    698, 
    699, 
    702, 
    703, 
    704, 
    705, 
    706, 
    707, 
    708, 
    709, 
    710, 
    711, 
    712, 
    713, 
    714, 
    715, 
    716, 
    717, 
    718, 
    719, 
    720, 
    721, 
    723, 
    724, 
    725, 
    726, 
    727, 
    728, 
    729, 
    730, 
    731, 
    732, 
    733, 
    734, 
    735, 
    736, 
    737, 
    738, 
    740, 
    741, 
    742, 
    743, 
    746, 
    747, 
    748, 
    749, 
    750, 
    751, 
    752, 
    753, 
    754, 
    755, 
    756, 
    757, 
    759, 
    760, 
    761, 
    762, 
    765, 
    766, 
    767, 
    768, 
    769, 
    770, 
    771, 
    772, 
    773, 
    774, 
    775, 
    776, 
    777, 
    778, 
    779, 
    780, 
    781, 
    782, 
    783, 
    784, 
    786, 
    787, 
    788, 
    789, 
    790, 
    791, 
    792, 
    793, 
    794, 
    795, 
    796, 
    797, 
    798, 
    799, 
    800, 
    801, 
    803, 
    804, 
    805, 
    806, 
    809, 
    810, 
    811, 
    812, 
    813, 
    814, 
    815, 
    816, 
    817, 
    818, 
    819, 
    820, 
    822, 
    823, 
    824, 
    825, 
    828, 
    829, 
    830, 
    831, 
    832, 
    833, 
    834, 
    835, 
    837, 
    838, 
    839, 
    840
  ], 
  "heads": [[749, 0, 0]], 
  "attrs": {"mxnet_version": ["int", 10501]}
}